Assets/ML-Agents/platformBalance/models/1.0+0.01_0.1_brain3.onnx (onnx, 321473 bytes, 7 tensors)

action_model._continuous_distribution.log_sigma f4 [1, 2]
0.021068275 0.03848398
00000000: 6097 ac3c 61a1 1d3d

action_model._continuous_distribution.mu.bias f4 [2]
0.0011069921 0.003955431
00000000: 7e18 913a 8f9c 813b

action_model._continuous_distribution.mu.weight f4 [2, 256]
0.0067913784 -0.018657357 0.001982255 0.03414677 0.005198432 0.008723278 -0.012444205 -0.0005527505
0.0039043352 0.0014111679 0.005613797 0.0025343788 0.010075161 -0.002526872 0.00767647 0.008180181
-0.003791393 0.017559603 -0.011241544 0.0023233767 -0.010286751 0.022026325 -0.014691699 0.0075217634
-0.01730956 0.007532773 -0.009537025 -0.008276434 -0.03473585 -0.0015098972 0.0075902794 0.01064816
-0.002449746 0.011491196 0.005468616 -0.0009997723 0.014301228 -0.010425444 -0.007034114 -0.00194291
0.00671713 -0.0002941106 0.019407842 -0.0017602217 0.0012490983 0.0015709563 -0.012331252 0.0013607849
-0.010038444 0.003476349 -0.006772416 -0.013822912 -0.00035070252 0.0006345053 -0.0062517035 -0.012934308
0.0075325007 0.0036417153 -0.002806752 0.007522703 0.0027627724 0.007229892 0.0024019198 0.005201967
-0.0014014647 0.0051448885 -0.0028960854 0.0017928004 -0.0005620501 -0.030385528 -0.007159128 0.0060508195
0.0066723437 0.0050873393 0.006658 0.031151408 -0.009065846 -0.008476386 0.00025546603 -0.007614514
0.00022573354 0.006698357 -0.0006370525 -0.003191796 0.00238666 0.00040061132 -0.031030968 -0.015510549
0.0021493454 -0.0064402865 0.012169789 0.0033138364 -0.00057902484 -0.0004069692 -0.019178668 0.0011763055
0.0015750111 0.008562976 0.00026816002 0.0075464984 0.009051388 -0.0023205893 0.0037552875 -0.0030315286
-0.0038668548 0.021182947 0.010807354 0.009270448 -0.0008971329 -0.0005646018 0.00017930633 -0.0016771334
-0.024067378 -0.0054393364 0.009094202 -0.00033984196 -0.004821069 -0.00975005 -0.011255342 0.006157017
0.0059599658 -0.0019351366 0.0014411287 0.0054471465 0.0043791467 -0.00313334 -0.008167278 -0.0046918797
-0.0012330326 0.00620271 0.003430159 0.0024339024 0.016663589 -0.0008862978 0.006791188 -0.0035304672
0.004136298 -0.0016037154 -0.02075514 -0.001313838 -0.005370849 -0.035486486 0.0017857696 -0.011642832
0.013403227 0.0017247208 -0.0066636656 0.005393249 -0.0036202949 -0.0107891 -0.0016125813 0.0010111319
-0.025314718 9.215579e-05 0.0068426137 -0.0111910505 -0.0052745948 -0.00065925263 0.0152072655 9.886701e-05
-0.008429991 0.00012698697 0.0058465633 0.007914616 0.02324307 0.0065539214 0.0016078369 0.019721271
0.0029079614 -0.007141786 -0.00020055982 0.0058212704 0.0046807826 -0.0019288507 0.009044817 0.016844437
0.016365238 -0.00037829278 -7.843314e-05 0.005172467 -0.00079714024 0.006109513 0.012445341 -0.01190145
-0.009184016 -0.016038585 -0.00035639148 0.032377243 -0.0051404373 -0.0015839858 -0.0018150649 -0.004034926
-0.008068212 0.008610977 0.0025427078 -0.008682504 0.006666334 -0.0017866602 -0.023014767 0.012105554
-0.00081977557 0.005814313 -0.0030361554 -0.006301892 -0.0035792917 -0.013257475 0.0066243885 -0.0021933934
0.0052060946 -0.00040145492 -0.000660524 -0.005033619 -0.0022947702 0.002560606 0.0023645326 0.028728211
-0.019893782 -2.3011318e-05 0.0077699954 0.06102456 0.010303724 0.0067265886 -0.0006706001 0.0034277274
0.0036941094 -0.0034953842 -0.0033233056 -0.01340945 0.010368719 -0.0021942898 0.009907844 0.011717934
0.014560296 -0.009894884 -0.0070340065 0.0051150587 -0.0037736965 0.006411486 0.0081515 -0.0023273085
-0.0071862964 0.01165675 0.004999212 0.016876088 0.0008461729 -0.0021781651 0.0056882016 -5.0527684e-05
-0.00014079137 -0.01396066 0.0014972355 -0.0052740513 -0.02243922 0.0059758974 0.017475199 0.005453406
00000000: 368a de3b 50d7 98bc b8e8 013b 7cdd 0b3d
00000010: 9c57 aa3b 14ec 0e3c c7e2 4bbc 75e6 10ba
00000020: e0df 7f3b f0f6 b83a f1f3 b73b d217 263b
00000030: 4a12 253c e199 25bb e68a fb3b 2a06 063c
00000040: 0579 78bb 28d9 8f3c 742e 38bc cb43 183b
00000050: c389 28bc 8d70 b43c 74b5 70bc 2079 f63b
00000060: c7cc 8dbc 7bd5 f63b 2f41 1cbc e199 07bc
00000070: 2e47 0ebd bee7 c5ba e1b7 f83b 9f75 2e3c
00000080: eb8b 20bb 9245 3c3c 1332 b33b cb0a 83ba
00000090: b34f 6a3c 7bcf 2abc 6d7e e6bb 3ea9 feba
000000a0: 5f1b dc3b db32 9ab9 32fd 9e3c 3db7 e6ba
000000b0: c9b8 a33a 8ce8 cd3a 0509 4abc 5d5c b23a
000000c0: 4978 24bc 75d3 633b 25eb ddbb 7f79 62bc
000000d0: 7fde b7b9 ee54 263a 17db ccbb 6bea 53bc
000000e0: 32d3 f63b d8a9 6e3b 7cf1 37bb 0281 f63b
000000f0: a10f 353b bbe8 ec3b 8769 1d3b 4375 aa3b
00000100: 5ab1 b7ba 7496 a83b 40cc 3dbb 66fc ea3a
00000110: 8b56 13ba 12eb f8bc 1e97 eabb f445 c63b
00000120: ada3 da3b b2b3 a63b 5a2b da3b 3d31 ff3c
00000130: ea88 14bc 8ae0 0abc 12f0 8539 2c83 f9bb
00000140: e3b2 6c39 e47d db3b dfff 26ba 732d 51bb
00000150: 8369 1c3b 2409 d239 a834 febc f51f 7ebc
00000160: 08dc 0c3b 0a09 d3bb cb63 473c f32c 593b
00000170: b3c9 17ba 7b5e d5b9 951c 9dbc 432e 9a3a
00000180: 9a70 ce3a b94b 0c3c d497 8c39 9e48 f73b
00000190: 464c 143c 0715 18bb 451b 763b 9cac 46bb
000001a0: 0f6b 7dbb dc87 ad3c 5411 313c 14e3 173c
000001b0: 922d 6bba c901 14ba 2d04 3c39 42d3 dbba
000001c0: f328 c5bc 763c b2bb d9ff 143c d12c b2b9
000001d0: 0ffa 9dbb acbe 1fbc 5368 38bc cdc0 c93b
000001e0: d14b c33b 69a4 fdba 41e4 bc3a fa7d b23b
000001f0: f27e 8f3b b958 4dbb 0cd0 05bc 57be 99bb
00000200: b59d a1ba 1a40 cb3b 85cc 603b 1b82 1f3b
00000210: 1482 883c 7056 68ba 9d88 de3b 695f 67bb
00000220: c889 873b c233 d2ba af06 aabc 1635 acba
00000230: f2fd afbb 475a 11bd 7c10 ea3a 94c1 3ebc
00000240: 3599 5b3c 0710 e23a e15a dabb dab9 b03b
00000250: 7842 6dbb c4c4 30bc 405d d3ba f587 843a
00000260: d060 cfbc c343 c138 0138 e03b ab5a 37bc
00000270: 82d6 acbb b2d1 2cba e527 793c d256 cf38
00000280: f21d 0abc ce27 0539 8794 bf3b 4eac 013c
00000290: 4068 be3c 47c2 d63b 0ebe d23a 818e a13c
000002a0: 7f93 3e3b a505 eabb 5e4d 52b9 5bc0 be3b
000002b0: 4061 993b 7dd1 fcba b630 143c 58fd 893c
000002c0: 6410 863c 9955 c6b9 797c a4b8 cc7d a93b
000002d0: 2df7 50ba 4f32 c83b 8be7 4b3c 4dfe 42bc
000002e0: 8e78 16bc 5a63 83bc 0eda bab9 009e 043d
000002f0: 1d71 a8bb be9d cfba 79e7 edba 6a37 84bb
00000300: 8930 04bc 0e15 0d3c 8fa3 263b 1041 0ebc
00000310: 4371 da3b 5e2e eaba 7789 bcbc 6056 463c
00000320: 35e6 56ba fe85 be3b 3cfa 46bb 1a80 cebb
00000330: 8d92 6abb e135 59bc 6611 d93b 09bf 0fbb
00000340: e397 aa3b 5e7a d2b9 0427 2dba 0ef1 a4bb
00000350: db63 16bb d7cf 273b 46f6 1a3b 6d57 eb3c
00000360: 49f8 a2bc 6e08 c1b7 729b fe3b e4f4 793d
00000370: f3d0 283c b76a dc3b 36cb 2fba b9a3 603b
00000380: df18 723b d112 65bb d1cb 59bb 4fb3 5bbc
00000390: 8fe1 293c 13ce 0fbb 8254 223c 94fc 3f3c
000003a0: 4f8e 6e3c 271e 22bc 867d e6bb 399c a73b
000003b0: 1f50 77bb 7117 d23b de8d 053c c285 18bb
000003c0: 067b ebbb f4fb 3e3c 6ed0 a33b b93f 8a3c
000003d0: b4d1 5d3a 8cbf 0ebb 1864 ba3b b0ed 53b8
000003e0: 65a1 13b9 41bb 64bc e33e c43a f3d1 acbb
000003f0: 75d2 b7bc 76d1 c33b 2628 8f3c 7cb2 b23b

network_body._body_endoder.seq_layers.0.bias f4 [256]
-0.009777182 -0.00085219584 -0.0037923048 3.5708003e-06 7.642751e-08 -0.01138606 -0.013271583 -0.017691229
-0.0046934765 0.010603203 -0.02844805 -0.007335341 -0.0020526678 -0.025409797 0.001328629 -0.010158178
-0.002816326 -0.016927695 0.002903856 -0.0054984987 -0.012221956 -0.0080822185 -0.015440439 -0.012962476
-0.02154389 -0.018082116 -0.008093192 -4.1152957e-06 -0.0011981577 -0.0043571456 0.0003309253 -0.009093038
-0.018466799 -0.008961527 -0.013135898 -0.01216378 0.0039526597 -1.6868338e-05 -0.0112525895 -0.02564293
-0.015472414 -0.009913823 -0.023203548 -0.0151791945 -0.0113920495 -0.0008088526 -0.0038143273 -0.04179412
-0.003904016 -0.028597744 -0.011867938 -0.0070937905 -0.00274589 -0.003460569 -0.005006992 -0.008559001
-0.006707161 -0.04043316 -0.015534985 -0.013000653 0.0038534855 -0.0020573372 -0.0031966912 -5.969016e-06
-0.013841341 -0.011687022 -0.008393091 -0.008563358 0.004086236 -0.006884519 -0.011467132 -0.005423003
0.0062462194 -0.0054958593 -0.023353273 -0.024338529 -0.002885293 -0.007053852 -0.01708054 -0.025042968
-0.01417512 -0.012972 0.0045757773 -4.3429422e-06 -0.019449795 -0.027978413 -0.01127857 -0.008714905
-0.017343655 -0.022919908 4.559316e-13 -0.0064619435 -0.0021994174 -0.018677024 -0.0065972647 -0.0076354016
-0.013927636 -0.011202536 -0.010883055 0.009532012 -0.00763236 -0.0041907486 0.00021275404 0.0005017419
-0.011227885 -0.008935511 -0.003569932 -0.02093554 0.039804354 -0.006823863 0.0109196715 -0.008872074
0.0015124674 -0.0054203416 -0.009960531 -0.00941688 -0.0057525714 -0.0029555643 -0.02507458 1.4104713e-06
0.001959246 -0.016440505 -0.02822148 0.006249828 0.0014233921 -0.022493972 -0.0067134555 -0.011573732
0.0052740946 -5.734589e-05 -0.021922618 -0.01511891 -0.0042422763 -0.017563205 -0.008629577 -0.0123246955
-0.015542318 -0.011472856 -0.016686587 -0.0059705814 -0.004645689 -0.0342895 0.0018650129 -0.007052106
-0.012533949 -0.031171778 -0.018339781 -0.012199006 0.001628822 -0.009711771 -0.012384175 -0.00040568667
-0.0129646845 -0.019768033 -2.9574148e-06 0.004332665 -0.010995553 0.0241817 -0.010969225 -0.0018730707
-0.01471025 -0.002700866 0.004328548 -3.143954e-11 -0.0075210384 -0.01110712 -0.02433249 -6.7178524e-05
-0.013255056 -0.0036917387 -0.014160815 -0.003205831 -0.005838606 -0.020695351 -0.0051646954 0.0047672656
0.0057142684 -0.012623183 0.012258327 0.0117771365 0.004827786 0.0070992284 -0.005472583 0.010271965
-0.012340976 -0.009287257 -0.011894231 2.1079915e-05 -0.0013482223 -0.024059106 -0.0022650543 -0.010532762
-0.023647197 -0.02935201 -0.008974296 -0.0053029633 0.009737305 -0.012083199 0.00062254595 0.0003135148
0.0017664458 -0.0028998961 -0.008758476 -0.013171928 -0.0047091767 0.004566732 6.419579e-10 -0.0024178477
-0.0038318208 -0.0011698009 -0.006927888 -0.014394929 -0.022664929 -0.0041368846 -0.01641187 -0.006433965
-0.011184822 -0.0078921225 -0.035247758 -0.018411556 -0.014257415 -0.012967689 -0.021328157 -0.033328995
-0.015866179 -0.0013140807 0.0033302936 -0.018041741 -0.0031882958 -0.023268878 -0.011765438 -0.00949023
-0.026602523 -0.0014661542 -0.0059605488 1.4103628e-16 -0.0034235017 -0.002812492 -0.016081618 5.134164e-05
-0.008655788 -0.022375934 0.0056141117 -0.008032311 -0.038241107 -0.005689441 6.6536944e-05 -0.0011020151
-0.009638402 -0.0004978164 0.0025159242 -0.017755035 0.011732279 -0.007422397 0.0061406954 1.3239288e-11
00000000: 7930 20bc e565 5fba 5188 78bb e2a1 6f36
00000010: 7820 a433 998c 3abc 0e71 59bc 32ed 90bc
00000020: bccb 99bb 0fb9 2d3c e30b e9bc 4d5d f0bb
00000030: 0d86 06bb 3528 d0bc 6425 ae3a 7d6e 26bc
00000040: 1c92 38bb f3ab 8abc 9f4e 3e3b c02c b4bb
00000050: 993e 48bc 486b 04bc e5f9 7cbc 9160 54bc
00000060: d07c b0bc f220 94bc 4f99 04bc 1f16 8ab6
00000070: 800b 9dba 63c6 8ebb 0b80 ad39 f7fa 14bc
00000080: af47 97bc 5ed3 12bc f337 57bc 974a 47bc
00000090: 5085 813b 7b80 8db7 c85c 38bc 1f11 d2bc
000000a0: 0280 7dbc 966d 22bc 5e15 bebc 28b2 78bc
000000b0: b8a5 3abc 2e09 54ba cbf9 79bb 5030 2bbd
000000c0: 85da 7fbb d145 eabc bd71 42bc 0773 e8bb
000000d0: 64f4 33bb b7ca 62bb b111 a4bb 0d3b 0cbc
000000e0: bfc7 dbbb 3e9d 25bd 7386 7ebc b100 55bc
000000f0: c28a 7c3b 64d4 06bb 947f 51bb 7549 c8b6
00000100: cbc6 62bc ec7a 3fbc 2d83 09bc 544d 0cbc
00000110: d5e5 853b 8897 e1bb a3e0 3bbc 72b3 b1bb
00000120: 16ad cc3b 9c16 b4bb 5d4f bfbc 9861 c7bc
00000130: 2f17 3dbb 0024 e7bb 7dec 8bbc e926 cdbc
00000140: c33e 68bc 8388 54bc 67f0 953b 97b9 91b6
00000150: 2d55 9fbc fc32 e5bc c0c9 38bc f6c8 0ebc
00000160: 4814 8ebc 88c2 bbbc 5655 002b b6be d3bb
00000170: 1a24 10bb 8f00 99bc de2d d8bb 6432 fabb
00000180: bd30 64bc d78a 37bc d74e 32bc 282c 1c3c
00000190: e018 fabb 8c52 89bb ba16 5f39 5487 033a
000001a0: 2af5 37bc 4066 12bc 85f5 69bb 0281 abbc
000001b0: e409 233d b69a dfbb 6ce8 323c 2d5c 11bc
000001c0: fc3d c63a 1f9d b1bb 7f31 23bc 4249 1abc
000001d0: 1180 bcbb 24b2 41bb 3569 cdbc 6d4f bd35
000001e0: b166 003b 3dae 86bc bc30 e7bc 5bcb cc3b
000001f0: 1d91 ba3a 4745 b8bc 8cfc dbbb c09f 3dbc
00000200: 50d2 ac3b ae86 70b8 1097 b3bc 4eb5 77bc
00000210: cb02 8bbb b6e0 8fbc 1263 0dbc 85ed 49bc
00000220: 35a5 7ebc a5f8 3bbc 4fb2 88bc dea4 c3bb
00000230: dd3a 98bb 2673 0cbd 7373 f43a 5a15 e7bb
00000240: 315b 4dbc f55b ffbc 4f3d 96bc 57de 47bc
00000250: 327e d53a 1f1e 1fbc ffe6 4abc 58b2 d4b9
00000260: d469 54bc 92f0 a1bc 0078 46b6 07f9 8d3b
00000270: b126 34bc b318 c63c 44b8 33bc d381 f5ba
00000280: 4303 71bc 0301 31bb 7ed6 8d3b c645 0aae
00000290: 0b73 f6bb a3fa 35bc ee54 c7bc 32e2 8cb8
000002a0: bc2b 59bc 19f1 71bb c302 68bc eb18 52bb
000002b0: c751 bfbb 4c89 a9bc 9b3c a9bb b936 9c3b
000002c0: c23e bb3b 78d1 4ebc 26d7 483c e4f4 403c
000002d0: 6732 9e3b a5a0 e83b 5b53 b3bb be4b 283c
000002e0: ce31 4abc 9429 18bc 05e0 42bc c6d4 b037
000002f0: d5b6 b0ba 9a17 c5bc 4e71 14bb 9b91 2cbc
00000300: c4b7 c1bc a073 f0bc ed08 13bc 7bc4 adbb
00000310: 3889 1f3c 9cf8 45bc 5a32 233a 3f5f a439
00000320: 1688 e73a 2f0c 3ebb b67f 0fbc 12cf 57bc
00000330: 704f 9abb 86a4 953b c575 3030 c174 1ebb
00000340: 491f 7bbb 0154 99ba 5603 e3bb b5d8 6bbc
00000350: cdab b9bc b48e 87bb 3072 86bc 03d4 d2bb
00000360: 8b40 37bc f64d 01bc f45f 10bd d5d3 96bc
00000370: ef97 69bc 6e76 54bc 63b8 aebc fc83 08bd
00000380: caf9 81bc 3b3d acba 0e41 5a3b 46cc 93bc
00000390: baf2 50bb 609e bebc d3c3 40bc e97c 1bbc
000003a0: 89ed d9bc f92b c0ba b550 c3bb 909a 2225
000003b0: d45c 60bb c951 38bb 99bd 83bc ab57 5738
000003c0: 02d1 0dbc bc4d b7bc 95f6 b73b f499 03bc
000003d0: b5a2 1cbd 7e6e babb c089 8b38 7e71 90ba
000003e0: 63ea 1dbc e57f 02ba 34e2 243b 0273 91bc
000003f0: bf38 403c 9437 f3bb e337 c93b 74e8 682d

network_body._body_endoder.seq_layers.0.weight f4 [256, 52]
-0.049711376 0.0631036 0.06539728 -0.24815726 0.03045135 0.19780292 0.14180192 0.0054692402
0.05976988 -0.16898187 -0.0066641886 0.04630027 0.006125179 0.29106367 -0.2177308 -0.13310687
-0.09723018 -0.01771622 -0.05082215 0.060216796 0.20849374 0.0013910161 0.15304473 -0.06772777
-0.08833584 0.1322895 -0.009800741 0.13281484 0.030343382 0.12202631 -0.17294995 0.16412716
0.031301573 -0.21934813 0.08466946 -0.226656 -0.12328622 -0.0067036822 0.18466309 -0.11889955
0.029628787 -0.01540038 -0.08784253 0.022603692 0.014682561 0.10428876 -0.009733794 0.0234705
0.13509323 0.09806427 0.028906677 -0.09412959 0.07122661 -0.18079005 -0.08277019 0.09908349
0.053897478 0.15639704 0.0891866 -0.037860166 -0.018029787 0.1927303 0.26951915 0.06573828
0.04515695 -0.06214174 0.013526092 0.21466754 0.089157075 0.13586107 0.20060527 0.30337694
0.011432476 -0.24223003 0.1722491 -0.17571975 0.16825101 0.18495546 0.063142195 -0.061607145
0.10209721 -0.07605929 0.09558644 -0.17240119 0.039431732 -0.124493085 0.04157412 -0.08021605
0.05129158 0.010878932 0.2152841 -0.01532842 0.103733405 -0.061952993 0.06622806 -0.14282636
-0.039644167 -0.10117993 0.0630848 -0.2249559 -0.021365857 -0.046312246 -0.37194863 0.004610159
0.21852401 0.16739745 0.21366508 0.16214055 0.00859882 -0.35419405 0.15550284 -0.06150315
0.021689987 0.18086122 0.29507017 0.30884743 -0.06192251 -0.04129522 0.06101801 -0.11060282
0.25705248 -0.087462455 0.08995232 0.12895896 -0.04617919 0.010659869 0.16714086 0.009415137
0.09279733 0.054907035 0.016825527 0.018087706 0.10720795 -0.03054497 0.22567883 -0.3773409
-0.17893903 0.03627092 -0.026005892 0.051011637 0.101259395 -0.0152409375 0.051537134 -0.099983074
-0.2369986 -0.10436616 0.055527866 -0.011021845 0.15225501 -0.05349999 0.046502985 -0.10653509
0.059241578 0.12262214 0.010403093 0.027572429 0.043764237 -0.22973135 0.28207827 -0.09382944
-0.13191338 0.15746753 -0.10989685 0.0872997 -0.2029073 -0.12623401 -0.10895869 -0.050565757
-0.004704434 -0.07867242 -0.06932125 0.01968909 -0.040493663 -0.14039269 0.1907407 -0.030162012
-0.0059615076 0.17650153 0.07359739 -0.1738294 -0.16617063 0.040880676 0.14730322 0.05899836
-0.07424648 0.05721083 -0.0072187055 0.13562886 0.06915467 0.050407182 -0.0024848087 -0.039036077
0.14309618 -0.09743588 -0.089142725 -0.2534505 0.03815362 0.11931481 0.12150186 0.07281052
0.016235832 0.16347355 -0.06849322 -0.06532125 0.03388829 -0.17342076 -0.14648457 -0.16010551
-0.13515331 -0.2249862 -0.03087201 0.03016012 0.059925694 0.35015574 -0.11291821 0.13640223
0.307456 -0.038469817 0.20868328 0.1760211 0.030072866 -0.10307104 -0.32734674 -0.10637512
-0.04125595 0.10728427 -0.0025733244 0.02848276 0.0719929 -0.029176146 -0.3354708 0.09706436
-0.061422937 -0.084649235 0.15115725 -0.113811485 0.12636402 -0.30527106 0.08517413 0.05213569
0.2127205 -0.15426233 0.101401836 -0.18367803 0.08461062 0.12869789 -0.025051981 -0.11416646
0.016398357 -0.27020577 0.057743322 -0.07304813 0.16251448 0.14924626 -0.074952856 -0.21201742
00000000: 289e 4bbd 763c 813d 02ef 853d f01c 7ebe
00000010: 1c75 f93c d98c 4a3e 8634 113e 5037 b33b
00000020: 43d1 743d 9509 2dbe 445f dabb 5aa5 3d3d
00000030: bab5 c83b 4c06 953e d3f4 5ebe 2b4d 08be
00000040: 9e20 c7bd 9b21 91bc e32a 50bd e3a5 763d
00000050: 627f 553e c152 b63a c2b7 1c3e dbb4 8abd
00000060: 6ce9 b4bd e676 073e 4a93 20bc 9d00 083e
00000070: af92 f83c eee8 f93d cb19 31be f310 283e
00000080: 1436 003d cc9c 60be 2f67 ad3d 8318 68be
00000090: 7c7d fcbd 90aa dbbb 5218 3d3e 9b81 f3bd
000000a0: 12b8 f23c e051 7cbc c9e6 b3bd 612b b93c
000000b0: 208f 703c 5895 d53d 7e7a 1fbc 3545 c03c
000000c0: e155 0a3e ecd5 c83d b2cd ec3c 04c7 c0bd
000000d0: 42df 913d 0721 39be 6b83 a9bd 49ec ca3d
000000e0: 9ac3 5c3d 8c26 203e 77a7 b63d 4313 1bbd
000000f0: 34b3 93bc 175b 453e 6afe 893e cba1 863d
00000100: 7ef6 383d 5688 7ebd 8b9c 5d3c cfd1 5b3e
00000110: fc97 b63d 2a1f 0b3e 786b 4d3e 3954 9b3e
00000120: 484f 3b3c 260b 78be 1162 303e e1ef 33be
00000130: fe49 2c3e f764 3d3e b250 813d c657 7cbd
00000140: 5818 d13d f9c4 9bbd d3c2 c33d f089 30be
00000150: 2b83 213d 3bf6 febd a049 2a3d 5048 a4bd
00000160: 1f17 523d 8c3d 323c 6f73 5c3e 0e24 7bbc
00000170: 2e72 d43d 6cc2 7dbd 94a2 873d 1341 12be
00000180: ec61 22bd 6c37 cfbd 9b32 813d d75a 66be
00000190: 7307 afbc e9b1 3dbd 0d70 bebe d110 973b
000001a0: c2c4 5f3e 3d6a 2b3e 05cb 5a3e 2c08 263e
000001b0: 11e2 0c3c ec58 b5be 233c 1f3e baea 7bbd
000001c0: 33af b13c af33 393e 7013 973e 4021 9e3e
000001d0: 75a2 7dbd 2d25 29bd 05ee 793d bb83 e2bd
000001e0: 629c 833e 841f b3bd ec38 b83d d10d 043e
000001f0: 6426 3dbd bba6 2e3c f926 2b3e f241 1a3c
00000200: 870c be3d 33e6 603d b0d5 893c ab2c 943c
00000210: d78f db3d 7239 fabc 5a18 673e d432 c1be
00000220: cb3b 37be d190 143d 4f0a d5bc 94f1 503d
00000230: 1661 cf3d 20b5 79bc 9a18 533d edc3 ccbd
00000240: c3af 72be edbd d5bd 3071 633d f894 34bc
00000250: bde8 1b3e ce22 5bbd ea79 3e3d 122f dabd
00000260: 4ca7 723d 5121 fb3d bc71 2a3c 93df e13c
00000270: 2142 333d b23e 6bbe 906c 903e a629 c0bd
00000280: 4d14 07be 2b3f 213e 9a11 e1bd 2fca b23d
00000290: eec6 4fbe 7d43 01be bc25 dfbd 0a1e 4fbd
000002a0: a727 9abb 011f a1bd 4df8 8dbd 044b a13c
000002b0: afdc 25bd 1ac3 0fbe 8851 433e 5316 f7bc
000002c0: c058 c3bb d1bc 343e 3aba 963d 5600 32be
000002d0: a228 2abe 7f72 273d a8d6 163e 44a8 713d
000002e0: 8a0e 98bd e755 6a3d e48a ecbb 4be2 0a3e
000002f0: f7a0 8d3d c377 4e3d 2cd8 22bb 4be4 1fbd
00000300: ce87 123e 768c c7bd 7690 b6bd 44c4 81be
00000310: f846 1c3d 535b f43d f8d5 f83d af1d 953d
00000320: 0201 853c 9c65 273e 2c46 8cbd 26c7 85bd
00000330: 73ce 0a3d 3695 31be 0d00 16be b3f2 23be
00000340: a165 0abe c862 66be 4ce7 fcbc 5b12 f73c
00000350: a574 753d 9d47 b33e aa41 e7bd 07ad 0b3e
00000360: df6a 9d3e 8792 1dbd 12b1 553e e03e 343e
00000370: 5f5b f63c e916 d3bd fe99 a7be 33db d9bd
00000380: 00fc 28bd dbb7 db3d 38a5 28bb ad54 e93c
00000390: 0371 933d d002 efbc d4c2 abbe aec9 c63d
000003a0: 9e96 7bbd 945c adbd f7c8 1a3e ff15 e9bd
000003b0: 9265 013e 7d4c 9cbe c66f ae3d 3c8c 553d
000003c0: 67d3 593e f2f6 1dbe c4ab cf3d 1816 3cbe
000003d0: 5548 ad3d 61c9 033e d039 cdbc 1bd0 e9bd
000003e0: d955 863c 6958 8abe 4384 6c3d 429a 95bd
000003f0: 326a 263e 03d4 183e e280 99bd 181b 59be

network_body._body_endoder.seq_layers.2.bias f4 [256]
-0.0062092296 -0.0075550857 -0.00039948293 -0.003220169 0.0017506034 -0.008786303 -0.0018483765 -0.0078026727
-0.0010137509 -0.006911065 -0.0033879313 -0.008055915 -0.009626639 -0.002314038 -0.006828489 -0.007890705
-0.0058865887 -0.0103138415 -0.0056383456 -0.0037016377 0.00062695146 -0.007058342 -0.0007255544 -0.006932358
-0.006648476 0.0019747412 -0.0035998628 -0.0056234 0.0001015504 -0.012419574 -0.01319422 -0.0058894656
-0.009732441 -0.013884208 -0.011531789 -0.0036181835 -0.005221333 -0.007204363 -0.008730494 -0.0038166656
-8.187881e-05 -0.012455703 0.0061289803 -0.014206792 -0.009346913 -0.0050704423 -0.0025268882 -0.007233292
-0.008559121 -0.0023281137 -0.007591878 -0.018762324 -0.010075787 -0.009794536 -0.0058716214 -3.7717966e-06
-0.0085209515 -0.0035416659 -0.0059562093 -0.0067220363 -0.009905422 0.0040127044 -0.0062725646 -0.008101381
-0.0076159495 0.0052102883 -0.0025113274 -0.011307845 -0.0065342356 0.0020898588 -0.006931768 -0.006185558
-0.008385239 -0.0064034653 -0.0011188119 0.006017084 -0.012096205 -0.008263505 -0.011641908 -0.00604438
-0.0059902547 -0.0077312137 -0.0070611876 0.00073437265 -0.007865298 -0.0017484166 -0.008480339 -0.008292523
-0.011926639 -0.0048047137 -0.005394301 -0.014895538 -0.0004693439 -0.009094052 0.004392777 -0.010235466
-0.01021384 -0.001097897 0.003159819 -0.011006329 -0.012208339 -0.0035797816 -0.0055366475 -0.008344436
-0.009064874 -0.008856223 -0.009929165 -0.0049246578 -0.0024230364 -0.0023941814 -0.0019665768 -0.004205256
-0.004379492 -0.0046560625 -0.015425758 -0.0013209016 -0.00561662 -0.007608545 -0.0073743686 -0.004843874
-0.002545566 -0.0052712625 -0.007914709 -0.0013464842 -0.007336175 -0.011918196 -0.0040630978 -0.008997933
-0.004161949 -0.004892999 -0.0011413856 -0.009600092 -0.0069934106 -0.013445725 -0.009005706 -0.007313814
-0.009298642 0.0012436818 0.00021817024 -0.0020370372 -0.0098670535 -0.009249493 -0.009684657 -0.009164118
-0.0048056133 -0.008257085 -0.00956555 -0.0071163555 -0.0070698624 -0.007829262 -0.013678904 -0.015328959
-0.016727442 -0.007083156 -0.008814862 -0.0093039675 -0.0019020117 -0.0029934263 -0.005738171 -0.008492162
-0.017896557 -0.015773425 -0.007770241 -0.00891509 -0.002090559 -0.010537035 -0.01849246 -0.0036568637
-0.0022613828 -0.017283337 -0.0064758463 -0.0075940965 -0.0013094824 -0.008060981 -0.0049456414 0.00015003595
-0.021317206 -0.0142651 -0.0028670258 -0.007001319 -0.01679315 -0.007875901 -0.0054835468 -0.0008933692
-0.021617385 -0.006911917 -0.010800438 0.012633292 -0.011002083 -0.011883414 -0.006321459 0.0013026957
-0.017875705 1.7192919e-05 -0.010160292 -0.0011809123 -0.0106330365 -0.010002048 -0.006353038 -0.006184379
-0.010734216 -0.0064603244 -0.010605942 -0.0007246098 -0.0071143797 -0.0042562485 -0.009827262 -0.011503411
-0.0037730015 0.002611912 -0.009584201 -0.0074074757 -0.0043592574 -0.010874568 -0.0067578256 -0.013202272
-0.0026297334 0.002434766 -0.0088108415 0.0016625314 -0.0048775026 -0.009875092 -0.0011361984 -0.0077638775
-0.022851678 -0.015697578 0.0019557057 -0.0104650855 -0.005208843 -0.007657247 -0.0061737187 -0.010613817
-0.014660775 -0.008338326 -0.002315611 -0.0005727756 0.0054032286 -0.005825799 -0.008935691 -0.0123761445
-0.008987563 -0.013146265 -0.0077823745 0.0015503234 -0.0064919363 -0.0057502086 -0.0048498567 -0.011391885
-0.0072896183 -0.0066036913 -0.009784634 -0.013111336 -0.011928259 -0.007468541 -0.007628169 -0.0045341533
00000000: cb76 cbbb a790 f7bb b171 d1b9 7909 53bb
00000010: 8174 e53a 6df4 0fbc 3945 f2ba 90ad ffbb
00000020: d6df 84ba 3776 e2bb 0e08 5ebb f5fc 03bc
00000030: 0db9 1dbc 1ea7 17bb 84c1 dfbb 0448 01bc
00000040: 49e4 c0bb 63fb 28bc dfc1 b8bb 2d97 72bb
00000050: 005a 243a aa49 e7bb 2233 3eba d528 e3bb
00000060: 75db d9bb a96a 013b adeb 6bbb 8044 b8bb
00000070: 75f7 d438 787b 4bbc 922c 58bc 6bfc c0bb
00000080: d174 1fbc 977a 63bc d4ef 3cbc 0c1f 6dbb
00000090: b717 abbb 9412 ecbb 590a 0fbc 0621 7abb
000000a0: 5ab6 abb8 0113 4cbc 9dd5 c83b 9bc3 68bc
000000b0: cb23 19bc f425 a6bb 269a 25bb 4005 edbb
000000c0: 8e3b 0cbc 4493 18bb 4ac5 f8bb 72b3 99bc
000000d0: ea14 25bc 4379 20bc bb66 c0bb f91e 7db6
000000e0: 769b 0bbc 4b1b 68bb 4e2c c3bb 8744 dcbb
000000f0: 5a4a 22bc 017d 833b 168a cdbb a8bb 04bc
00000100: 378f f9bb 11bb aa3b 1595 24bb 8a44 39bc
00000110: 241d d6bb 03f6 083b e223 e3bb 39b0 cabb
00000120: 3e62 09bc 29d4 d1bb 19a5 92ba f52a c53b
00000130: 292f 46bc a763 07bc b4bd 3ebc ef0f c6bb
00000140: e649 c4bb 1f56 fdbb 8961 e7bb ea82 403a
00000150: 73dd 00bc 202b e5ba 1ff1 0abc 5ddd 07bc
00000160: f367 43bc dc70 9dbb adc2 b0bb 6a0c 74bc
00000170: 4612 f6b9 38ff 14bc 49f1 8f3b a8b2 27bc
00000180: f357 27bc 4fe7 8fba f714 4f3b e453 34bc
00000190: 7c05 48bc c59a 6abb c46c b5bb 1ab7 08bc
000001a0: d684 14bc b119 11bc f0ad 22bc 065f a1bb
000001b0: cecb 1ebb b3e7 1cbb afe1 00bb 3ecc 89bb
000001c0: d781 8fbb e291 98bb 52bc 7cbc 1a22 adba
000001d0: a00b b8bb 1a51 f9bb b0a4 f1bb 5cb9 9ebb
000001e0: 83d3 26bb 8eba acbb b2ac 01bc 837c b0ba
000001f0: 4c64 f0bb 8a44 43bc bc23 85bb 116c 13bc
00000200: f560 88bb 7355 a0bb 8c9a 95ba b449 1dbc
00000210: fb28 e5bb 754b 5cbc ab8c 13bc b8a8 efbb
00000220: 5559 18bc 0903 a33a a1c4 6439 d07f 05bb
00000230: 6ca9 21bc 2f8b 17bc 65ac 1ebc 1925 16bc
00000240: 6878 9dbb ba48 07bc d3b8 1cbc 5130 e9bb
00000250: 4eaa e7bb 4e46 00bc 7b1d 60bc 5026 7bbc
00000260: fd07 89bc d219 e8bb 366c 10bc ab6f 18bc
00000270: ec4c f9ba 5c2d 44bb 4407 bcbb b622 0bbc
00000280: cd9b 92bc 4537 81bc 819d febb 9910 12bc
00000290: c301 09bb 87a3 2cbc 807d 97bc fea7 6fbb
000002a0: b533 14bb c995 8dbc 5633 d4bb e6d7 f8bb
000002b0: f0a2 abba 3412 04bc 0c0f a2bb f852 1d39
000002c0: 6ca1 aebc 2ab8 69bc b6e4 3bbb 526b e5bb
000002d0: ca91 89bc ec09 01bc 53af b3bb fe30 6aba
000002e0: f116 b1bc 5d7d e2bb 52f4 30bc defb 4e3c
000002f0: 1542 34bc a7b2 42bc 3e24 cfbb 37bf aa3a
00000300: 1270 92bc 8339 9037 5a77 26bc d7c8 9aba
00000310: 3036 2ebc a1df 23bc 252d d0bb 55a6 cabb
00000320: 91de 2fbc 21b1 d3bb 8cc4 2dbc bef3 3dba
00000330: be1f e9bb 0078 8bbb 8602 21bc ce78 3cbc
00000340: 7644 77bb 9d2c 2b3b 0d07 1dbc 69ba f2bb
00000350: 1ad8 8ebb 3e2b 32bc c070 ddbb 584e 58bc
00000360: 9b57 2cbb 9890 1f3b 595b 10bc 4ce9 d93a
00000370: 75d3 9fbb 23cb 21bc 7eec 94ba 2068 febb
00000380: 7133 bbbc 3598 80bc 4c2b 003b c075 2bbc
00000390: f1ae aabb a5e9 fabb e84c cabb 93e5 2dbc
000003a0: bf33 70bc 799d 08bc 82c1 17bb 5226 16ba
000003b0: 910d b13b 58e6 bebb 0167 12bc 50c5 4abc
000003c0: 9240 13bc 6f63 57bc 4a03 ffbb 3934 cb3a
000003d0: 4fba d4bb 3f6c bcbb 8ceb 9ebb 07a5 3abc
000003e0: c0dd eebb c763 d8bb bb4f 20bc eed0 56bc
000003f0: bf6e 43bc aaba f4bb b8f5 f9bb 3c93 94bb

network_body._body_endoder.seq_layers.2.weight f4 [256, 256]
-0.023582492 0.011146482 -0.058309738 0.069744125 0.05782726 0.065886445 -0.013994296 -0.06904094
-0.073039435 -0.03536482 0.017478397 -0.0770607 0.021025017 -0.0882833 0.005918479 -0.037732936
0.071441986 -0.062273115 0.06100536 -0.021942688 -0.0028454356 -0.043453336 -0.11439506 0.112382926
0.08314123 -0.040901717 0.0026191312 0.052551303 0.07407989 0.080580205 -0.035194155 0.051791605
0.013391482 -0.104238875 0.069175206 0.030338546 0.07107708 -0.076284036 0.04302257 -0.02944967
0.05354675 0.022581397 -0.09379092 -0.004552534 0.07524934 0.048022605 0.03348469 -0.046528522
-0.06859301 -0.1940833 -0.051708583 0.11415598 0.072174765 0.01166091 0.026022317 0.016411748
-0.07457276 -0.03365208 0.032949768 0.025815258 0.045312535 -0.07245623 0.11081529 0.07601283
-0.013767464 -0.14478453 -0.05618633 -0.15538037 -0.0059898957 0.06659998 0.010426891 -0.08647422
-0.022479758 -0.13542576 0.039536506 0.002740419 -0.042719528 0.028008204 0.16131452 0.048175685
-0.0071664536 0.04354886 -0.008415972 0.018693967 -0.012717438 -0.04425076 0.03885395 0.02985204
0.08606376 0.021755628 -0.04010725 -0.04596563 -0.033230826 0.071433775 -0.0078008277 -0.051928487
-0.06712529 -0.031221041 0.063499585 -0.071883276 -0.0333479 0.041824974 -0.019790733 -0.03731113
0.08342059 -0.04903501 -0.0057499125 -0.04247201 -0.018384924 -0.0069845566 -0.006756772 -0.10103812
-0.058054466 -0.07094591 -0.08619964 -0.02548455 0.10917563 0.06709404 0.105327636 -0.013073829
-0.0020315181 -0.0076733595 0.081438996 0.009417253 -0.0043425323 -0.005136666 -0.060864493 -0.0481789
-0.032494497 0.013537611 -0.031918418 -0.14280753 -0.036397055 -0.07076836 -0.001173844 -0.07217685
0.11197598 -0.06505397 0.00065767625 -0.06496093 -0.05211136 0.039112866 0.023576159 0.07156593
0.037244506 -0.052629273 -0.08888949 -0.09039566 0.056779284 -0.019219013 0.018329399 0.017036336
0.07672573 -0.09093189 0.0016163626 -0.016923824 0.07648529 -0.06524337 0.014212917 0.0060747773
0.06758312 -0.025131892 -0.10130821 0.013687328 0.062349916 -0.018239347 -0.019711206 -0.025336815
0.029134432 -0.016859911 0.009497372 -0.16012624 -0.011188879 0.09282343 -0.09168827 -0.04550001
0.033924956 0.063836575 -0.036495328 -0.04607949 0.001275528 -0.13969709 -0.03515363 0.04576756
0.09450123 -0.0094331615 -0.03622299 0.1175441 0.02520022 0.051535416 -0.080588706 -0.088549845
-0.014981928 -0.08755949 0.016312363 -0.058061473 -0.08976355 0.07367988 0.10132544 0.05198176
-0.10297954 -0.016004857 -0.1308719 0.014370913 -0.02341861 0.08302275 -0.09833517 0.110765584
-0.041792363 0.044286128 0.04426795 -0.022705935 -0.06318632 0.0051601115 -0.06784388 -0.119131066
0.017762292 -0.10145575 -0.02740011 -0.03133021 0.08907619 0.048730396 0.04111419 0.039942034
0.042455755 0.021772966 0.042822234 -0.009018077 -0.042371687 0.034155753 -0.09471824 -0.08367524
-0.10498245 -0.011876776 -0.04189908 0.11183897 -0.045984272 -0.06424785 0.040833622 -0.017879527
-0.07169251 0.06991489 0.09666609 0.045337364 -0.07769531 -0.07462074 0.052046858 -0.07758583
0.037483137 0.08360013 -0.0035073245 -0.0141639095 0.09493098 0.021715557 -0.0153685035 0.024686772
00000000: 1230 c1bc bc9f 363c 31d6 6ebd 02d6 8e3d
00000010: 47dc 6c3d 79ef 863d 5548 65bc 5665 8dbd
00000020: b395 95bd b4da 10bd db2e 8f3c 00d2 9dbd
00000030: a83c ac3c e0cd b4bd cdef c13b da8d 1abd
00000040: 2d50 923d 1812 7fbd c2e0 793d 27c1 b3bc
00000050: 7d7a 3abb 20fc 31bd f547 eabd 0529 e63d
00000060: f345 aa3d 8f88 27bd bba5 2b3b 0940 573d
00000070: 33b7 973d 3c07 a53d bf27 10bd 6f23 543d
00000080: f267 5b3c 317b d5bd bbab 8d3d 8b88 f83c
00000090: dc90 913d ce3a 9cbd 6f38 303d 6f40 f1bc
000000a0: d653 5b3d 9ffc b83c 7415 c0bd 6c2d 95bb
000000b0: 531c 9a3d 5ab3 443d 3e27 093d b194 3ebd
000000c0: 7e7a 8cbd c6bd 46be 61cc 53bd 9cca e93d
000000d0: 5dd0 933d 670d 3f3c c12c d53c ee71 863c
000000e0: 9ab9 98bd c3d6 09bd 56f6 063d 857a d33c
000000f0: a399 393d ef63 94bd 20f3 e23d 9dac 9b3d
00000100: ee90 61bc 6542 14be a323 66bd 081c 1fbe
00000110: e346 c4bb 9265 883d 8dd5 2a3c 6519 b1bd
00000120: 7827 b8bc 0dad 0abe 08f1 213d 9a98 333b
00000130: acfa 2ebd 7671 e53c a22f 253e de53 453d
00000140: 92d4 eabb 4a60 323d 25e3 09bc 1724 993c
00000150: cd5c 50bc 4940 35bd 5225 1f3d 448c f43c
00000160: 3242 b03d dc38 b23c 8047 24bd 7546 3cbd
00000170: 0c1d 08bd df4b 923d 169e ffbb f7b2 54bd
00000180: fc78 89bd 45c3 ffbc 120c 823d 8a37 93bd
00000190: cf97 08bd aa50 2b3d 2d20 a2bc 8ed3 18bd
000001a0: 6ad8 aa3d efd8 48bd c369 bcbb 21f7 2dbd
000001b0: fb9b 96bc b5de e4bb e967 ddbb 13ed cebd
000001c0: 85ca 6dbd 174c 91bd 7089 b0bd fac4 d0bc
000001d0: 7997 df3d 9a68 893d 04b6 d73d 9d33 56bc
000001e0: 3823 05bb ce70 fbbb 7dc9 a63d d24a 1a3c
000001f0: cd4b 8ebb 7a51 a8bb 0c4d 79bd 3d57 45bd
00000200: f318 05bd dbcc 5d3c e3bc 02bd 233c 12be
00000210: 1415 15bd 00ef 90bd abdb 99ba 75d1 93bd
00000220: aa53 e53d 043b 85bd e867 2c3a 3c0a 85bd
00000230: b972 55bd d034 203d ca22 c13c 2991 923d
00000240: b28d 183d cb91 57bd b10b b6bd 5c21 b9bd
00000250: 6591 683d 3171 9dbc 8927 963c c98f 8b3c
00000260: 6122 9d3d 803a babd 21dc d33a d5a3 8abc
00000270: 52a4 9c3d 519e 85bd 4bdd 683c ed0e c73b
00000280: 0569 8a3d 66e1 cdbc ae7a cfbd d140 603c
00000290: a062 7f3d af6a 95bc 6579 a1bc 278f cfbc
000002a0: 55ab ee3c cc1d 8abc de9a 1b3c 22f8 23be
000002b0: 8f51 37bc 361a be3d 0fc7 bbbd 385e 3abd
000002c0: e5f4 0a3d c0bc 823d 207c 15bd d9bd 3cbd
000002d0: 9e2f a73a c10c 0fbe 41fd 0fbd c476 3b3d
000002e0: dc89 c13d 8c8d 1abc 8f5e 14bd f6ba f03d
000002f0: b170 ce3c cd16 533d b10b a5bd 9f59 b5bd
00000300: c376 75bc 6452 b3bd 81a1 853c ded1 6dbd
00000310: f4d5 b7bd 7ae5 963d b683 cf3d d3ea 543d
00000320: f0e6 d2bd 9e1c 83bc 4903 06be fa73 6b3c
00000330: 63d8 bfbc d507 aa3d f363 c9bd 11d9 e23d
00000340: 782e 2bbd 5f65 353d 4f52 353d cc01 babc
00000350: d467 81bd 2716 a93b bbf1 8abd fdfa f3bd
00000360: 3a82 913c 08c8 cfbd 3276 e0bc 1b54 00bd
00000370: 946d b63d 8699 473d 5a67 283d 429a 233d
00000380: 16e6 2d3d 385d b23c 5e66 2f3d 8ec0 13bc
00000390: ef8d 2dbd e7e6 0b3d a3fb c1bd ed5d abbd
000003a0: 0a01 d7bd cf96 42bc 5f9e 2bbd d40b e53d
000003b0: 015a 3cbd 6094 83bd 2841 273d 1678 92bc
000003c0: 86d3 92bd 8a2f 8f3d dff8 c53d acb3 393d
000003d0: b81e 9fbd c2d2 98bd 162f 553d 52e5 9ebd
000003e0: eb87 193d 8c36 ab3d 24db 65bb be0f 68bc
000003f0: 2c6b c23d d3e4 b13c 2dcc 7bbc ea3b ca3c
