Assets/ML-Agents/platformBalance/models/1.0+0.01_0.1_brain2.onnx (onnx, 321473 bytes, 7 tensors)

action_model._continuous_distribution.log_sigma f4 [1, 2]
0	0x3f4c54f1	0.7981711
1	0x3f312a34	0.6920502

action_model._continuous_distribution.mu.bias f4 [2]
0	0xba94024f	-0.0011292192
1	0xbba11f9b	-0.0049170977

action_model._continuous_distribution.mu.weight f4 [2, 256]
0	0xbc916fd1	-0.017753514
1	0xbc053c92	-0.008132117
2	0xbbe4944f	-0.0069756876
3	0x3c68fead	0.014220876
4	0xb94143cb	-0.00018431169
5	0x3c78eabe	0.015192686
6	0xbc9c35e4	-0.019068666
7	0xbc4c343f	-0.012463628
8	0x3c6443c5	0.013932173
9	0xbbe72b88	-0.00705475
10	0xbabcc42c	-0.0014401725
11	0xbc526b34	-0.012842942
12	0xbbdf2332	-0.0068096155
13	0xbc5b9103	-0.013401273
14	0x3ccc218e	0.024918344
15	0x3c599a6a	0.013281444
16	0xb8457e07	-4.7085832e-05
17	0xbc7958ea	-0.015218953
18	0x3bf6269d	0.0075119273
19	0xbc1972f9	-0.0093657905
20	0x3ae49569	0.0017439547
21	0x3b86aa30	0.0041096434
22	0x3c8f39e4	0.01748366
23	0xbbb86f1e	-0.0056284806
24	0x3c25eedf	0.010127752
25	0xbbd7824e	-0.006576813
26	0xbbe6e387	-0.0070461663
27	0x3abbddc7	0.0014333063
28	0x3c80fb87	0.015744938
29	0xbb05556d	-0.0020345107
30	0x3cb7ac3d	0.022420997
31	0xbbbf9324	-0.005846398
32	0xbbcb630d	-0.006206876
33	0x3c2dca9f	0.010607391
34	0x3c7849ff	0.015154361
35	0x3c18c5a2	0.009324463
36	0xbc0f99a5	-0.008764659
37	0xbafc6bba	-0.0019258179
38	0xbc9b9277	-0.018990738
39	0x3cf04943	0.029331809
40	0xbc11f61f	-0.0089087775
41	0xbc9150ab	-0.01773866
42	0xbc25c38c	-0.010117423
43	0xba980b82	-0.0011600109
44	0xbc058205	-0.008148675
45	0x3c169396	0.009190461
46	0x3c4a4bb7	0.012347153
47	0xbbfa0952	-0.0076305056
48	0x3b78d845	0.0037970704
49	0xbc70cd3c	-0.014697369
50	0x3c5fa0bf	0.013649165
51	0xbc0889cd	-0.0083336355
52	0x3ace0d0e	0.0015720443
53	0xbc070815	-0.008241673
54	0xbba10466	-0.0049138544
55	0xbc77641f	-0.015099554
56	0x39bfcab3	0.00036581382
57	0x3b898556	0.004196803
58	0xbc4d5e1c	-0.012534644
59	0x3c2cbc0d	0.010542882
60	0x3b08014d	0.0020752728
61	0x3c07a8f6	0.0082800295
62	0x3c02063a	0.007936055
63	0x3cb34fa3	0.02188856
64	0xbcb67ecb	-0.022277256
65	0x39f8ead1	0.00047477198
66	0xbc60b8ad	-0.013715905
67	0x3bbc31e3	0.0057432516
68	0xbc994dc6	-0.018713843
69	0x3cac8beb	0.021062812
70	0x3bd3ab9c	0.0064596664
71	0xbb9ea113	-0.004840979
72	0x3ce6e265	0.028184125
73	0xbc6a911f	-0.014316826
74	0x3a4c6414	0.0007796895
75	0x3c4e7800	0.012601852
76	0xbc9273bc	-0.017877452
77	0xbc36fe1d	-0.011168984
78	0x3c552b51	0.013010816
79	0xbb1442cd	-0.0022622824
80	0x3b4d0d63	0.0031288497
81	0xbc8e80a0	-0.017395318
82	0xbbfca32b	-0.007709881
83	0xbb495e5b	-0.0030726406
84	0x3b1cefff	0.002394676
85	0xbc23a0c2	-0.009987058
86	0xbcf84664	-0.030307002
87	0xbc6cb2cc	-0.014446925
88	0x3b4c2c59	0.0031154363
89	0xbc0c1996	-0.008551022
90	0xbc818b02	-0.015813354
91	0xbab3633d	-0.0013686192
92	0x3b8df5b9	0.004332271
93	0xbba6c424	-0.0050892998
94	0x3c985cc6	0.018598925
95	0xb90359ae	-0.00012526542
96	0x3b199267	0.002343321
97	0x3b03095d	0.0019994595
98	0x3a921e19	0.0011147886
99	0x3c5cd7ac	0.013479155
100	0xbc87c144	-0.016571648
101	0xbbeb54c0	-0.007181734
102	0x3bebbe1d	0.007194294
103	0x3b15adc3	0.0022839166
104	0x3b8fe9fc	0.004391907
105	0xbbd7e1df	-0.006588205
106	0xbc3b5fdc	-0.011436429
107	0xb97d6a92	-0.00024167661
108	0xbd0c5f54	-0.0342706
109	0xbb6a1134	-0.003571582
110	0xbc4a17f1	-0.01233481
111	0xbc3edb0f	-0.011648907
112	0x3cb4909b	0.02204161
113	0xbbe6df3a	-0.0070456536
114	0x3a889e5f	0.0010423175
115	0x3b3c6159	0.0028744547
116	0xbb5f90b6	-0.0034113354
117	0x3cbe1e03	0.02320767
118	0x3c6ceed0	0.014461234
119	0x3cc0fd53	0.023558294
120	0xbb83d770	-0.004023485
121	0xbae24ae7	-0.0017264754
122	0xbbcb58eb	-0.006205668
123	0x39ec56ed	0.00045078192
124	0xbca9a8f9	-0.020710455
125	0x3b51a0d2	0.0031986726
126	0x3c7c6611	0.015405194
127	0xbcb403cb	-0.021974465
128	0x3ba24e07	0.0049531492
129	0x3cbab40e	0.022790935
130	0xbba09cfc	-0.0049015265
131	0xbb861184	-0.0040914435
132	0xb9e69567	-0.00043980332
133	0xbc24bde1	-0.010055036
134	0x3bcbacae	0.0062156534
135	0xbc489ce2	-0.012244435
136	0xbc826b4d	-0.015920306
137	0x3cf3a032	0.029739473
138	0x389d22f7	7.492856e-05
139	0xbb9cd062	-0.0047855834
140	0x3a1df18d	0.00060250686
141	0xbc8c6c4c	-0.017141484
142	0x3bff63ac	0.0077938642
143	0xbb6c6250	-0.003606934
144	0xbcc7b306	-0.024377357
145	0xbcab4f7a	-0.02091192
146	0xbc008d5b	-0.007846202
147	0x3c14d778	0.009084575
148	0x3c29592c	0.010336202
149	0xb9a89b73	-0.00032159276
150	0x3ba4e54b	0.0050322167
151	0x3cc4b154	0.024010338
152	0xbc29203d	-0.010322628
153	0x3b8b449e	0.004250123
154	0x3ba4af05	0.0050257468
155	0xbc119eb2	-0.008887934
156	0xbc887049	-0.016655104
157	0x3c7aec82	0.015315177
158	0xbb6d2868	-0.0036187414
159	0xbb2b0522	-0.0026095589
160	0xbd2bbfea	-0.04193107
161	0x3c352975	0.011057247
162	0xbbd7f019	-0.006589901
163	0x3bb7b052	0.005605736
164	0xbb7ea3fa	-0.0038855062
165	0xbc7a08a1	-0.015260846
166	0xbbadb852	-0.0053015137
167	0x39dbf13c	0.0004195067
168	0xbc1c6b5a	-0.009547079
169	0xbd45c7d6	-0.04828628
170	0x3b92f1b3	0.004484379
171	0x3b9e2025	0.0048256093
172	0x3bc407a8	0.005982358
173	0x38bcb205	8.997697e-05
174	0xbb074b37	-0.0020644197
175	0x3c4a213a	0.012337023
176	0x3c04f9e0	0.0081162155
177	0xbc148607	-0.009065158
178	0xbc97ff47	-0.018554343
179	0x3ce77ec6	0.028258692
180	0x3bba6e53	0.005689421
181	0xbcda4e7a	-0.026648749
182	0x3c353647	0.011060304
183	0xbac4c208	-0.0015011439
184	0x3c8cde2e	0.017195787
185	0xbaacb869	-0.0013177517
186	0x3b3452b1	0.0027515108
187	0xbb12dcc9	-0.002240943
188	0xbcab9334	-0.020944215
189	0xbc93e3bb	-0.018052926
190	0xbafb8694	-0.0019189888
191	0x3c2c7304	0.010525469
192	0x3c00cf6c	0.007861953
193	0x3c611349	0.013737508
194	0xb88c166e	-6.679898e-05
195	0xbc53d435	-0.012929012
196	0xbb8111de	-0.0039388975
197	0x3b7af9a5	0.0038295772
198	0xbc83e005	-0.016098032
199	0x3c0a8222	0.008453878
200	0xbbd4b95e	-0.006491824
201	0xbc272218	-0.010201
202	0xbc0b79a3	-0.008512887
203	0x3c5d125f	0.01349315
204	0xbb5e639b	-0.0033933881
205	0xbbf6a2ca	-0.00752673
206	0xbc3da6a5	-0.011575376
207	0xbc87f1bd	-0.016594762
208	0x3c758ba7	0.014986909
209	0xbc3ed92d	-0.011648458
210	0x3c2013e0	0.009770364
211	0x3b60207a	0.0034199045
212	0x3a4f320c	0.0007903881
213	0xbb74ecef	-0.0037372669
214	0xbbf3129f	-0.0074179913
215	0xbb39de1e	-0.0028361152
216	0x3c68f773	0.014219153
217	0x395f971d	0.00021323231
218	0x3c7238e2	0.01478407
219	0x3c58cf9c	0.013233092
220	0xbb109964	-0.0022064084
221	0x3a60cd29	0.0008575493
222	0xba828697	-0.0009958324
223	0xbc4bc1fd	-0.012436387
224	0xbb800866	-0.003907251
225	0x3cc83228	0.024437979
226	0x3bec01c7	0.0072023603
227	0xbcf9792a	-0.030453283
228	0xbc6b6e7d	-0.014369604
229	0x3c0b05a1	0.008485229
230	0xbc122faf	-0.0089225015
231	0xbbb30366	-0.0054630516
232	0x3b71f15d	0.0036917545
233	0x3ba4c105	0.0050278925
234	0x3b6c22e2	0.0036031534
235	0x3c47d136	0.012195876
236	0xbc457d8c	-0.0120538585
237	0x3bb3e55f	0.0054899896
238	0xbaebde67	-0.0017995358
239	0x3b678419	0.003532654
240	0xbc9ee588	-0.019396558
241	0xbc80ffa0	-0.015746891
242	0x3c193536	0.009351065
243	0x3c98f840	0.018673062
244	0xbac53098	-0.0015044389
245	0xbc809de1	-0.015700283
246	0x3c77af09	0.015117415
247	0xbc9b6922	-0.01897103
248	0x3c83e343	0.016099578
249	0xbba61a1a	-0.0050690295
250	0xbc90cb15	-0.017674962
251	0xbca6858d	-0.020327354
252	0x3be04ee0	0.00684534
253	0xbc2ce7ce	-0.010553313
254	0x3c340541	0.010987581
255	0xbc14b6d2	-0.009076791

network_body._body_endoder.seq_layers.0.bias f4 [256]
0	0xba824009	-0.0009937297
1	0x3bafd6c1	0.005366177
2	0x3acdfaeb	0.0015715038
3	0xbb3d514c	-0.0028887568
4	0x3bf5f873	0.007506424
5	0xbc2a7bde	-0.010405509
6	0xb9bb22bb	-0.00035693296
7	0xbbb1216e	-0.0054055965
8	0xbbce682c	-0.0062990393
9	0xbc2ff325	-0.0107391225
10	0x3b337116	0.0027380637
11	0x3954dc11	0.00020299877
12	0xbb383d25	-0.0028112617
13	0x3b9cd3f8	0.004786011
14	0xbc666fbc	-0.0140647255
15	0x3a3641c4	0.0006952549
16	0xbc68c4bf	-0.014207064
17	0x3b9d8a70	0.004807763
18	0x3b3fee24	0.002928623
19	0xbbf2107e	-0.00738722
20	0xbbd40cb0	-0.006471239
21	0x3a013ee2	0.000493033
22	0xbc1eecf5	-0.00970005
23	0xbbf5ca89	-0.0075009507
24	0xb92204ff	-0.00015451385
25	0x3c1a7d50	0.009429291
26	0xbc11a1da	-0.008888686
27	0xba91fdb4	-0.0011138231
28	0xb90ab345	-0.00013227489
29	0xbc406e3e	-0.011745034
30	0xbc18b62d	-0.009320778
31	0x350884d8	5.085726e-07
32	0xbc12ca07	-0.0089593
33	0xbb53adb1	-0.0032299573
34	0xbb943324	-0.004522698
35	0xbc0e8dfe	-0.008700846
36	0xbbf8368e	-0.007574863
37	0xbadd36c0	-0.0016877279
38	0xbc016c43	-0.007899347
39	0xbc1f6fd1	-0.009731249
40	0xbc540c7b	-0.012942429
41	0xbc95fa25	-0.018307755
42	0xbc1c4cdd	-0.00953981
43	0xbc4ea328	-0.012612142
44	0xbc263574	-0.01014458
45	0xbd104cd8	-0.035229534
46	0xbc2216a4	-0.009893093
47	0x3c2265b6	0.009911945
48	0xbc9554f2	-0.018228982
49	0xbc9c528f	-0.019082336
50	0xb92b42c7	-0.00016332707
51	0xb9aaf89a	-0.0003261015
52	0xba2cbca2	-0.0006589388
53	0x3bb50d7d	0.0055252896
54	0xbc835645	-0.016032347
55	0xbc13cc94	-0.009020943
56	0xbbcd4019	-0.0062637446
57	0x39e26cb6	0.00043187075
58	0xb8d0001b	-9.9182325e-05
59	0xbd2597aa	-0.04042784
60	0x3c06b714	0.00822236
61	0xbb10490f	-0.0022016203
62	0xba9ac91d	-0.0011809204
63	0xbbf59b41	-0.0074953143
64	0xb60a23c7	-2.0584428e-06
65	0xbc1f2628	-0.009713687
66	0xbc3d1b61	-0.011542172
67	0x3bda9aad	0.006671271
68	0xbca0ba55	-0.0196201
69	0xbc26f1b3	-0.0101894615
70	0xbbb4adcf	-0.0055138837
71	0xbccbfa38	-0.024899587
72	0xbbdba693	-0.006703207
73	0xb923ab00	-0.00015608594
74	0xbb1defef	-0.002409931
75	0xbb8d7741	-0.0043171947
76	0x397f0b4b	0.00024322902
77	0xbb9a53e5	-0.004709708
78	0xbcfb0eff	-0.0306468
79	0xbb107d20	-0.0022047237
80	0xb98cf076	-0.00026882038
81	0x3a9cf98e	0.0011976229
82	0xbc5147d5	-0.012773474
83	0xbbfc5f7e	-0.0077018132
84	0xbc604d37	-0.013690284
85	0xba9650a0	-0.001146812
86	0x39b46fd2	0.00034415588
87	0x3b48606c	0.003057505
88	0xbaaa43b5	-0.0012990149
89	0xba506dfa	-0.0007950958
90	0xbcb47c2b	-0.022031864
91	0xbbe55d82	-0.0069996724
92	0xbc8d095c	-0.017216377
93	0xbb30d4f7	-0.0026982406
94	0xbabf3f94	-0.0014591091
95	0x3ae5cb49	0.0017531897
96	0xbc10ff38	-0.008849911
97	0xbc2d90ba	-0.0105935875
98	0xbb1d9627	-0.0024045797
99	0xbc486747	-0.0122316545
100	0xbbc6af17	-0.006063353
101	0x3b981f53	0.004642406
102	0xbbea7691	-0.0071552475
103	0xbcbce0b5	-0.023056367
104	0xb9417443	-0.00018449225
105	0x3c2b1a9a	0.010443354
106	0xbc4f5638	-0.0126548335
107	0xbc1a7edf	-0.0094296625
108	0xbc2c3466	-0.01051054
109	0xbbbf80fc	-0.0058442336
110	0xbb688f2e	-0.0035485732
111	0xbc44284b	-0.011972497
112	0x36c5cd62	5.894967e-06
113	0xbc03dcb4	-0.008048225
114	0xbcca7f60	-0.02471894
115	0x3b5bcd09	0.0033538959
116	0xbcc4756d	-0.023981774
117	0x3bb41eb0	0.0054968223
118	0xbc06cf71	-0.008228169
119	0x3b591a6d	0.0033127323
120	0x3b2af102	0.0026083593
121	0xbc4db86d	-0.012556178
122	0xbc450fed	-0.012027723
123	0x3b922f44	0.004461201
124	0x3bd08b00	0.0063642263
125	0xbc438cfe	-0.011935471
126	0xbbf6c9b3	-0.0075313686
127	0x3b01100b	0.00196934
128	0xbbdc4fcc	-0.0067233797
129	0xbcdd11b5	-0.026985982
130	0xbc591c83	-0.013251427
131	0xbc46be81	-0.012130381
132	0xbc0b74b4	-0.008511711
133	0xbc282ca0	-0.010264546
134	0xb9b6cbdd	-0.00034865635
135	0xbc02bede	-0.007980077
136	0xbcd354af	-0.025797216
137	0xbb80fb2c	-0.003936192
138	0x373a99a6	1.1122238e-05
139	0x3944f3c9	0.00018782834
140	0xbd0540c0	-0.032532454
141	0xbb7bc3d3	-0.003841628
142	0xbc478743	-0.012178245
143	0x396d1fbd	0.00022613905
144	0x3a22902d	0.00062012934
145	0xbba05edc	-0.0048941206
146	0xbabb840c	-0.0014306321
147	0xbcc2a11e	-0.023758467
148	0xbb8bf750	-0.0042714253
149	0xbc6c8337	-0.014435581
150	0xbcb8abe6	-0.022542905
151	0xb8677f09	-5.5193002e-05
152	0xbbec793a	-0.0072166
153	0x3cdd2eb9	0.026999818
154	0xba56149f	-0.0008166525
155	0x3bebd5e7	0.00719713
156	0xbc54a60e	-0.012979044
157	0x3c03c5db	0.008042778
158	0xbc0ed279	-0.008717173
159	0x3757d98c	1.286565e-05
160	0xb9e2c651	-0.00043253836
161	0xbc03d687	-0.008046753
162	0xba7ec796	-0.00097190717
163	0xbc62aeb0	-0.013835594
164	0x3b6337c7	0.0034670697
165	0xbc5b715f	-0.013393729
166	0xb39f06bf	-7.4052416e-08
167	0xba01fa20	-0.0004958231
168	0xb9032014	-0.00012505084
169	0xbc003be9	-0.007826784
170	0xbbd80847	-0.0065927836
171	0xbc1f7540	-0.009732544
172	0xbc85182f	-0.016246883
173	0xbbad2f09	-0.005285148
174	0x35596c0c	8.099603e-07
175	0xba6f3059	-0.0009124331
176	0x3ac6af9b	0.0015158536
177	0xb9418390	-0.00018454925
178	0xbc3b7746	-0.011442011
179	0xbaa92999	-0.0012906074
180	0xbcd9e407	-0.02659799
181	0xbc27654f	-0.010217025
182	0xbd064ec8	-0.032789975
183	0x3b90f505	0.00442374
184	0xbb2fc10f	-0.0026817953
185	0xbcf42457	-0.029802484
186	0xbc14e322	-0.009087356
187	0xba9aa080	-0.00117971
188	0xbbf12728	-0.007359404
189	0xbc84ed9a	-0.016226579
190	0xbb041cdc	-0.0020158803
191	0xb9c4b59e	-0.0003751935
192	0xbc8d0df5	-0.01721857
193	0xbb4bd80f	-0.0031104123
194	0xbbbba4f4	-0.005726451
195	0xbbe5e6c9	-0.007016037
196	0xba716a2f	-0.0009209243
197	0xbc255fab	-0.01009361
198	0xbb4068e7	-0.0029359402
199	0xbcc474b9	-0.023981439
200	0xbc6e047f	-0.014527439
201	0xbb8f2e8c	-0.0043695625
202	0xbb144753	-0.002262552
203	0x3c91a902	0.017780785
204	0xbc1da6ba	-0.00962227
205	0xbb5c817e	-0.003364652
206	0xbba20d79	-0.0049454537
207	0xbc43b926	-0.011945998
208	0x39f19762	0.0004607989
209	0x3b26a9ee	0.0025430876
210	0x3a2cef24	0.0006596914
211	0xbcaeb225	-0.02132518
212	0x37bc6891	2.2460039e-05
213	0x3b97b28e	0.0046294397
214	0x37f8afea	2.964582e-05
215	0xbc3f2cd9	-0.011668407
216	0xbc07fc26	-0.008299863
217	0x3ab54ff8	0.0013833037
218	0xbca1adae	-0.019736137
219	0x3b0c4474	0.0021403106
220	0xbbc595b8	-0.0060298108
221	0x3ac6a8ae	0.0015156472
222	0xbadde0ad	-0.001692792
223	0xbb86f593	-0.00411863
224	0xb08b6450	-1.0142092e-09
225	0xbc246335	-0.010033418
226	0xbc280586	-0.010255223
227	0x3b4a0a6a	0.0030828961
228	0xbbfdb919	-0.0077430126
229	0x3c8c7481	0.017145397
230	0xbce2bf6b	-0.027679166
231	0xbc0b9ad1	-0.008520798
232	0x3b3169ce	0.002707112
233	0xbc3910a3	-0.01129547
234	0xba02a9a3	-0.0004984384
235	0xbbeaef9f	-0.0071696783
236	0x3413985d	1.3745871e-07
237	0x3b468e82	0.0030297344
238	0xbce418b2	-0.027843807
239	0xbbf526e8	-0.0074814446
240	0xbc2bf15c	-0.010494556
241	0xba9a17f7	-0.001175641
242	0xbaaa1f15	-0.0012979234
243	0xbb1a1f54	-0.0023517208
244	0xbc5c50bc	-0.013446983
245	0xbc055e3f	-0.008140146
246	0xbc323204	-0.0108761825
247	0xbbae3979	-0.00531691
248	0xbc037ff3	-0.008026111
249	0xbb667776	-0.003516642
250	0xb5650bd1	-8.5326343e-07
251	0xbc87cdb4	-0.01657758
252	0xbae232b6	-0.0017257545
253	0x3a7c23ce	0.00096183724
254	0xbb1e21a3	-0.0024128936
255	0xbb8cec79	-0.0043006507

network_body._body_endoder.seq_layers.0.weight f4 [256, 52]
0	0x3d6dc283	0.05804683
1	0xbd406343	-0.046969663
2	0xbce7a633	-0.028277492
3	0xbe606c88	-0.21916401
4	0x3e41b4d8	0.18916643
5	0x3e11c82a	0.14236513
6	0xbcc51397	-0.024057193
7	0x3e53d370	0.20686126
8	0xbe807c7d	-0.25094977
9	0xbe18d964	-0.14926678
10	0x3e34efe8	0.17669642
11	0x3df4c491	0.119515546
12	0x3d6c0a54	0.057627037
13	0xbe38d180	-0.18048668
14	0x3c6b5b88	0.0143650845
15	0xbe14ffab	-0.14550655
16	0xba04d38e	-0.00050669245
17	0x3d308acf	0.04310113
18	0xbe4f270e	-0.20229742
19	0x3e35be50	0.1774838
20	0x3b857deb	0.0040738485
21	0xbd97582e	-0.07389866
22	0x3cc887fe	0.024478909
23	0xbe60d88e	-0.21957609
24	0x3da6c547	0.081430964
25	0x3dfea34e	0.12433492
26	0x3e17f7a3	0.1484056
27	0xbe842d89	-0.2581599
28	0xbdd019df	-0.101611845
29	0xbd2ddf09	-0.04244903
30	0x3e7c2573	0.2462366
31	0xbe00a3b4	-0.12562448
32	0xbe0810d3	-0.13287668
33	0x3ee5628d	0.4480175
34	0xbd151de9	-0.036405478
35	0xbdf977ec	-0.121810764
36	0x3e0444a9	0.12916817
37	0xbd6aaf56	-0.05729612
38	0x3db75a58	0.089527786
39	0xbdb2e26f	-0.08734595
40	0x3dcfc542	0.10145046
41	0xbe5fe2b4	-0.21863824
42	0x3d160851	0.036629025
43	0x3d2bb306	0.041918777
44	0x3d9873d3	0.07443967
45	0xbdb472c5	-0.08810953
46	0x3caea8ab	0.021320662
47	0xbd9cea44	-0.0766187
48	0x3e24d9eb	0.16098754
49	0x3e157f87	0.14599429
50	0xbe058660	-0.13039541
51	0xbc9c3ee8	-0.019072965
52	0x3ce78b80	0.028264761
53	0x3d168375	0.03674646
54	0xbeb07dc3	-0.3447095
55	0x3ebd557c	0.36979282
56	0xbd9fd6a7	-0.078046136
57	0xbc49fb85	-0.012328033
58	0x3bbfab71	0.005849295
59	0x3cde2400	0.027116776
60	0x3d8c06c6	0.068372294
61	0x3e190634	0.14943773
62	0x3d6718fe	0.05642032
63	0xbdaf648a	-0.08564098
64	0xbcc62de1	-0.024191799
65	0xbe29dc3d	-0.1658792
66	0xbe0516fb	-0.12997048
67	0x3e14b1d4	0.14520961
68	0xbcda7ee8	-0.026671842
69	0xbd9e879b	-0.077407084
70	0xbe8966c2	-0.2683621
71	0xbcbfd7c0	-0.023418307
72	0xbe0cd875	-0.13754447
73	0xbc20bf1a	-0.009811187
74	0xbd833f2e	-0.06408535
75	0xbded3db5	-0.11584035
76	0xbddc45ed	-0.10755525
77	0xbda992f8	-0.08279985
78	0xbdd458a9	-0.10368473
79	0x3e97d044	0.29651082
80	0xbe63edb5	-0.22258647
81	0xbe1dc336	-0.15406498
82	0xbdcfa61b	-0.10139104
83	0x3d7ae66f	0.061254915
84	0xbb9605a2	-0.004578308
85	0xbd4320d8	-0.047638744
86	0x3d01b0cb	0.031662744
87	0x3ca849d1	0.02054301
88	0x3defb3c1	0.11704207
89	0x3d85b26a	0.065281704
90	0xbe1ce9eb	-0.15323608
91	0x3c2be47e	0.0104914885
92	0xbd5e212e	-0.05423086
93	0xbd89ee25	-0.067348756
94	0x3dc9a205	0.09845356
95	0xbde7ab0b	-0.11311921
96	0xbcc48761	-0.023990335
97	0x3ea575f2	0.32316548
98	0x3dab9144	0.083773166
99	0x3e895366	0.2682144
100	0xbdbe54fc	-0.09293553
101	0x3e52c1b9	0.20581712
102	0xbe074cc2	-0.13212875
103	0x3e03561d	0.12825818
104	0xbda56cb4	-0.08077374
105	0x3dde6331	0.10858763
106	0x3d23df07	0.040007617
107	0x3e74b3c4	0.238967
108	0x3d8251ad	0.06363235
109	0xbe786b84	-0.24259764
110	0x3e85c30f	0.2612538
111	0xbc6b9ce3	-0.014380666
112	0x3e100456	0.14064154
113	0x3ead2867	0.33819887
114	0x3d705376	0.058673345
115	0x3d1cb61f	0.03825962
116	0xbdafc0ac	-0.08581671
117	0xbd1a1d63	-0.03762568
118	0x3d0bc27a	0.034121014
119	0xbe474230	-0.19458842
120	0x3ccb5646	0.024821412
121	0xbe577863	-0.21042018
122	0x3ca0c23f	0.019623874
123	0x3e252c83	0.16130261
124	0xbe5bf4ec	-0.21480149
125	0xbec9da38	-0.394243
126	0x3e26a806	0.16275033
127	0xbe3a85a7	-0.18215047
128	0x3e70b11c	0.23505062
129	0x3e0c7b0e	0.13718817
130	0x3d09684b	0.033546727
131	0xbe1dd986	-0.1541501
132	0xbe1fb8ef	-0.1559789
133	0x3e22b3f8	0.15888965
134	0xbd397177	-0.045274224
135	0x3e8373d2	0.256743
136	0xbed5ec6f	-0.41781947
137	0xbd1656e4	-0.03670396
138	0x3e29d65e	0.16585681
139	0xbb3a0ade	-0.0028387825
140	0x3d7e3e13	0.062070917
141	0xbe7f1388	-0.24909794
142	0x3da75aa4	0.08171585
143	0xbe30a6af	-0.17251085
144	0x3e894b64	0.2681533
145	0xbe09c626	-0.13454494
146	0x3e5816db	0.21102469
147	0xbd126d42	-0.035748728
148	0xbc073218	-0.008251689
149	0x3cb0683a	0.021534074
150	0x3d4cbb8f	0.049983557
151	0xbd8fb60c	-0.070171446
152	0x3db0410c	0.08606157
153	0xbe96891b	-0.29401478
154	0xbe7f9add	-0.2496142
155	0x3e66c665	0.22536619
156	0xbd5891ee	-0.052873544
157	0xbc15e4fd	-0.009148833
158	0xbd0637c1	-0.032768015
159	0x3e9593b1	0.29214242
160	0xbdcb64f2	-0.09931363
161	0x3eb4644b	0.35232767
162	0x3eb67b8f	0.35641143
163	0x3d1d031d	0.038333047
164	0xbe8004ba	-0.25003606
165	0xbdda5d62	-0.106623426
166	0x3e13d61e	0.14437148
167	0xbda3fe39	-0.080074735
168	0xbda57b60	-0.080801725
169	0x3e1438dc	0.14474815
170	0xbdd5dee0	-0.10442901
171	0xbd46b6a3	-0.04851402
172	0xbd14d5fc	-0.036336884
173	0xbe57df43	-0.21081261
174	0xbd64b2ae	-0.055834465
175	0xbe027905	-0.12741478
176	0xbc37a14c	-0.01120789
177	0xbe8885ba	-0.26664525
178	0xbea3ede2	-0.32017428
179	0x3e7e9b55	0.24863942
180	0x3ecdd7f7	0.4020383
181	0xbe933f67	-0.2875931
182	0xbd5a10cb	-0.05323867
183	0xbe244784	-0.16042906
184	0xbe2edc80	-0.17076302
185	0xbc9acfe1	-0.018897953
186	0xbcd8ee62	-0.026480857
187	0xbdb24c5a	-0.08705969
188	0xbe0f8e6b	-0.14019172
189	0xbe75b8a3	-0.23996215
190	0xbe448fee	-0.1919553
191	0x3e01e656	0.12685522
192	0x3c6ff4a7	0.014645732
193	0xbdb17c21	-0.08666254
194	0x3eb52a73	0.3538395
195	0x3e03ac62	0.12858728
196	0xbe390246	-0.18067273
197	0xbe1d0261	-0.15332939
198	0x3cea0659	0.02856748
199	0x3e31858e	0.17336103
200	0x3ea9cf12	0.33165795
201	0xbd866026	-0.065613076
202	0x3d95f2c6	0.07321696
203	0x3d86381d	0.065536715
204	0x3cf094f3	0.0293679
205	0xbda0712c	-0.07834086
206	0xbdd3eacc	-0.10347518
207	0xbe207662	-0.1567016
208	0x3bfeb895	0.0077734687
209	0x3e1a5841	0.15072729
210	0x3e6c2dc7	0.23064338
211	0xbe053606	-0.1300889
212	0x3c02c8fb	0.007982488
213	0xbe2b40db	-0.16723959
214	0xbd773787	-0.06035569
215	0xbe2b1cbb	-0.16710179
216	0xbe5e703b	-0.217225
217	0x3d461911	0.04836375
218	0x3e2887e7	0.16458093
219	0x3de0ac7c	0.10970399
220	0x3d602087	0.05471852
221	0x3e06f000	0.1317749
222	0xbd8cb9b7	-0.0687136
223	0x3cb38a31	0.02191648
224	0xbe253ed0	-0.16137242
225	0x3da0837d	0.078375794
226	0xbdf126a5	-0.11774949
227	0xbe5defb1	-0.21673466
228	0x3e09f7d1	0.1347344
229	0x3d8b9ee3	0.068174146
230	0x3d3f8a46	0.046762727
231	0xbce96a42	-0.02849305
232	0xbd4780dd	-0.048706878
233	0xbd3bae60	-0.045820594
234	0xbb8312f8	-0.004000064
235	0xbd3500d2	-0.044190235
236	0x3de815db	0.113322936
237	0x3e1480c5	0.14502247
238	0x3d688b79	0.056773636
239	0x3dab501e	0.083648905
240	0x3e464ae7	0.1936451
241	0xbcca825e	-0.024720367
242	0x3d3911f0	0.045183122
243	0xbdcb233e	-0.09918831
244	0xbda56f90	-0.080779195
245	0xbe2920b3	-0.1651638
246	0xbe013704	-0.12618643
247	0xbeab518f	-0.33460662
248	0x3d1145ec	0.035467073
249	0xbe807c66	-0.25094908
250	0x3e8fdfda	0.28100473
251	0xbd6c317f	-0.05766439
252	0xbda87a89	-0.08226497
253	0x3e704c55	0.23466618
254	0x3c20cab5	0.009813954
255	0x3e5a89ce	0.21341631

network_body._body_endoder.seq_layers.2.bias f4 [256]
0	0xbaf2f6dc	-0.0018536705
1	0x3b15a276	0.002283243
2	0xbb4f82cc	-0.0031663654
3	0xbc90a7a8	-0.01765807
4	0xbbc12986	-0.0058948426
5	0xbaa56836	-0.0012619558
6	0xbbe84502	-0.0070883045
7	0xba33c0ba	-0.00068570266
8	0xbb95d852	-0.0045729065
9	0xbc5da2c7	-0.013527579
10	0xbbf1be16	-0.0073773963
11	0xbaf88290	-0.0018959809
12	0xbc0fb061	-0.008770079
13	0xbba20ca5	-0.004945355
14	0xbaf7eb3b	-0.0018914709
15	0xbb5d65db	-0.0033782634
16	0xbbd63723	-0.0065373345
17	0xbb7dc9d9	-0.0038725047
18	0xbc36f449	-0.011166641
19	0xbb83b0a9	-0.0040188623
20	0xbc03582a	-0.008016625
21	0x3bf13bf6	0.007361884
22	0x3b87ce1e	0.004144444
23	0xbbef9933	-0.007311964
24	0xbc08c651	-0.008348064
25	0xbc194335	-0.009354402
26	0xbbe19582	-0.006884278
27	0xbbf644ab	-0.00751551
28	0xbb9679db	-0.004592163
29	0xbbb82b0d	-0.0056203664
30	0xbc135d93	-0.008994478
31	0xbbf6bd22	-0.0075298706
32	0xbba11f22	-0.0049170414
33	0x3bfa6022	0.0076408545
34	0xbb7c999d	-0.003854371
35	0x3a65fa4b	0.00087729533
36	0xb9be82fb	-0.00036337212
37	0xbad6abec	-0.0016378141
38	0xb9fbed91	-0.0004805145
39	0xbba8f76b	-0.0051564476
40	0xbbf53ade	-0.007483824
41	0x3b3150d0	0.0027056225
42	0x3b87721a	0.004133475
43	0xbb86356e	-0.004095725
44	0xbba561e5	-0.0050470703
45	0x3bed9aee	0.007251135
46	0xbc1d490e	-0.009599937
47	0xbae45487	-0.0017420211
48	0xbc23fe68	-0.010009386
49	0x3cadecda	0.021231104
50	0x3bfa8eb5	0.0076464065
51	0xbbb29fd1	-0.0054511805
52	0xbb75e00e	-0.003751758
53	0xb9994cef	-0.00029239754
54	0xbbc0fded	-0.0058896453
55	0xbba935a9	-0.0051638675
56	0xbb6c8f0b	-0.0036096002
57	0xbc0f2278	-0.008736245
58	0xba9b70f5	-0.0011859225
59	0xbbb5a6a0	-0.005543545
60	0x3a983bb7	0.0011614476
61	0xbb5781f4	-0.0032883855
62	0xbafd0d77	-0.0019306381
63	0xbbff864b	-0.0077979914
64	0xbb466232	-0.0030270931
65	0x394d6f75	0.00019591844
66	0xba90caf8	-0.0011046818
67	0xbbdfc198	-0.006828498
68	0xbbcf65e7	-0.0063292864
69	0x3a5eacfb	0.0008494404
70	0xbc007e8a	-0.007842669
71	0xbb98476e	-0.004647187
72	0xbb2ca079	-0.0026340766
73	0xbacdd543	-0.0015703816
74	0xbb9822d4	-0.0046428237
75	0xbbfeeb3c	-0.007779507
76	0x3acf8b78	0.0015834412
77	0xba9d3f27	-0.001199697
78	0xbbc0df4b	-0.0058859936
79	0xbbd942ab	-0.006630262
80	0xbc137ae3	-0.009001466
81	0x3a4fb69b	0.00079236337
82	0xbb9a5e2a	-0.0047109323
83	0xbc05801b	-0.0081482185
84	0xbbfb82e9	-0.007675518
85	0xbb5e9bb7	-0.0033967325
86	0xbb85e2aa	-0.0040858584
87	0xbb414c3a	-0.0029494897
88	0xbc0519d0	-0.00812383
89	0xbbab1f08	-0.005222205
90	0xbb5dc0d1	-0.0033836851
91	0x3b8d287b	0.004307804
92	0xbc22a211	-0.009926335
93	0xbbd420c9	-0.006473635
94	0xbb643d27	-0.0034826489
95	0xbc18fdfa	-0.0093378965
96	0xbbaa9372	-0.005205565
97	0xbbec07ab	-0.0072030625
98	0xbc45f435	-0.012082149
99	0xbbb9c22f	-0.0056689004
100	0x3aa810f3	0.0012822434
101	0xbbd4476d	-0.006478241
102	0xbb358509	-0.0027697703
103	0xba5bcffc	-0.0008385179
104	0xbc2a546d	-0.010396105
105	0xbc483b9b	-0.012221242
106	0xbc0aaac7	-0.008463568
107	0xbc62ce0c	-0.013843071
108	0xbba4d2d6	-0.0050300164
109	0xbbecd9a8	-0.007228095
110	0x3c1efa36	0.00970321
111	0xba09b151	-0.00052525575
112	0xbb6bbd53	-0.0035971
113	0x3a97666b	0.0011550909
114	0xbb9483ec	-0.004532328
115	0xbbc6cd49	-0.0060669524
116	0xbc9a8007	-0.018859876
117	0xbb97d8e2	-0.0046340087
118	0xbb7a566c	-0.0038198484
119	0xbbe2bb82	-0.0069193253
120	0xbb745f5c	-0.0037288284
121	0xbbba7aa1	-0.005690888
122	0xbb9164ad	-0.0044370503
123	0xbbcf31e0	-0.0063230842
124	0xbba44e20	-0.005014196
125	0xbc41469c	-0.01179662
126	0xbc6e254b	-0.0145352585
127	0xb88bc54d	-6.6647866e-05
128	0xbb6585b5	-0.0035022323
129	0xbbe53e4f	-0.006995953
130	0xbb961898	-0.0045805685
131	0xbb8cf42d	-0.004301569
132	0xbc4d515a	-0.012531603
133	0x3954bedb	0.00020288995
134	0xbc316655	-0.0108276205
135	0xbbd3e4d9	-0.0064664898
136	0xbb2c631d	-0.0026304193
137	0xbbbd647a	-0.0057798
138	0x3b06d7f8	0.0020575505
139	0x3ab14ee1	0.0013527536
140	0xbc1c0dca	-0.009524772
141	0x3b3f9e74	0.0029238733
142	0xbbdc0c09	-0.006715302
143	0xbb88cf26	-0.0041750846
144	0xbb9b5aaa	-0.0047410326
145	0x3c068be1	0.008212061
146	0x3ac0846e	0.0014687905
147	0xbc510949	-0.012758561
148	0xbbeca68f	-0.007222004
149	0xbc73b6c4	-0.014875118
150	0xbbc154d4	-0.005900005
151	0xbb10daa0	-0.0022102967
152	0xb9eeef6d	-0.00045573284
153	0xbbb0a191	-0.005390354
154	0xbb8fbcec	-0.004386535
155	0xbb432897	-0.0029778832
156	0xbb1ebdb5	-0.002422196
157	0xbbddf1c2	-0.0067732045
158	0xbc26ed0b	-0.010188351
159	0x3a84b5cd	0.0010124982
160	0xbb6c3a36	-0.0036045439
161	0xbc3dcc1f	-0.011584311
162	0xbbe3f3ed	-0.0069565685
163	0xbc011d6c	-0.00788055
164	0xbb650652	-0.0034946394
165	0xb9be984c	-0.00036353094
166	0xbb0e72a5	-0.0021735814
167	0xbc00aeee	-0.0078542065
168	0xbbf95e84	-0.007610144
169	0xbc1be58a	-0.009515176
170	0xb9591721	-0.00020703349
171	0xbc210677	-0.0098282015
172	0xbc1f4695	-0.009721418
173	0xbc8e827e	-0.017396208
174	0xbbb1613e	-0.0054132035
175	0xbaa24717	-0.0012380806
176	0xbb53a7ef	-0.003229614
177	0xb755ce7f	-1.2743868e-05
178	0xbb4a6da7	-0.0030888112
179	0x3adf0e07	0.001701773
180	0xbc34e9be	-0.011042057
181	0xba825e22	-0.0009946267
182	0xbaac5dbd	-0.0013150495
183	0xbbec0cdb	-0.007203681
184	0xbbe17cfe	-0.0068813553
185	0xbb14435d	-0.002262316
186	0xbc01dd88	-0.007926352
187	0xb9de7b8d	-0.00042435192
188	0xba2e0ebe	-0.000663977
189	0xba7ac70c	-0.00095664035
190	0xbc173762	-0.009229513
191	0xbb833954	-0.004004637
192	0xbb372adf	-0.0027949137
193	0xbbc00aea	-0.005860676
194	0x37ce0c7e	2.456293e-05
195	0xba8ff3ea	-0.0010982726
196	0xbc259f56	-0.010108789
197	0xbc150c3e	-0.009097157
198	0xbb32582a	-0.0027213194
199	0xbb83e17b	-0.004024682
200	0xbb44e450	-0.0030043311
201	0xbb865f69	-0.0041007292
202	0xbbcadd0d	-0.006190902
203	0xbb53c232	-0.0032311794
204	0xbb6c49f1	-0.0036054815
205	0x3b38218c	0.0028096167
206	0xba9637a8	-0.0011460679
207	0xb992abad	-0.00027975198
208	0x3ac1ec46	0.0014795146
209	0xbb45a1ad	-0.003015618
210	0x3bf3f5fc	0.007445095
211	0xbc15674a	-0.009118864
212	0x3c14b245	0.009075706
213	0xbb4dbabb	-0.0031391818
214	0xbbb0e23b	-0.0053980625
215	0x39d7171d	0.00041025216
216	0xbbdc722a	-0.0067274766
217	0xbc014dd9	-0.0078920955
218	0xbbd2cc41	-0.0064330404
219	0xbaf6f39d	-0.0018840913
220	0xbbeaf174	-0.0071698967
221	0xbc26bf1e	-0.010177402
222	0xbc2e0172	-0.010620462
223	0xbb36887d	-0.002785235
224	0xbb908267	-0.0044100764
225	0xbbad1290	-0.005281754
226	0xbbafa373	-0.005360061
227	0xbc3246a2	-0.010881098
228	0xb9a9b3f8	-0.0003236828
229	0xbba45ae2	-0.005015717
230	0xbbadf114	-0.00530828
231	0xb944fc48	-0.00018785999
232	0xbb97b304	-0.0046294946
233	0xbbc483fa	-0.005997178
234	0xbc235922	-0.009969981
235	0xbc138baa	-0.0090054665
236	0x391ea7f8	0.00015130627
237	0xbbb3eb21	-0.005490676
238	0xbbcaa741	-0.006184489
239	0xbc113484	-0.008862618
240	0xbba4ccc4	-0.005029293
241	0xba06648a	-0.0005126676
242	0x39fd2534	0.0004828364
243	0x3a520054	0.0008010913
244	0xbc5cb685	-0.01347125
245	0x3b48f15a	0.0030661435
246	0x3c2bc32a	0.010483542
247	0xbbc695f8	-0.006060358
248	0xbbea1c50	-0.0071444884
249	0xbbd7cda7	-0.006585795
250	0xbc09fb12	-0.008421676
251	0xbc5a19d2	-0.01331182
252	0xbba87831	-0.005141281
253	0xbc23f231	-0.010006473
254	0xbb43fbf6	-0.002990482
255	0xbaa279ec	-0.0012395955

network_body._body_endoder.seq_layers.2.weight f4 [256, 256]
0	0xbd0e9cd8	-0.034817547
1	0xbd6abed3	-0.05731089
2	0x3e0ba7f3	0.13638286
3	0x3d685cec	0.056729242
4	0xbbefb954	-0.007315794
5	0xbcc435ab	-0.023951372
6	0xbd39d77b	-0.045371514
7	0x3d33a644	0.043859735
8	0x3ddc986a	0.10771258
9	0xbd53ec8b	-0.051739257
10	0x3cf3b109	0.029747503
11	0x3dac57a9	0.08415157
12	0x3d8da666	0.069165036
13	0xbcf9ed37	-0.03050862
14	0xbdeb4424	-0.11487606
15	0x3daa7ada	0.08324213
16	0x3d7c29d7	0.06156334
17	0xbd9b301a	-0.07577534
18	0xbbba6282	-0.0056880126
19	0xbdc74852	-0.09730591
20	0xbd9f6a57	-0.077839546
21	0xbcc8a093	-0.02449063
22	0xbcb3efa3	-0.021964854
23	0xbd5f1829	-0.0544664
24	0xbc239611	-0.009984509
25	0x3d84338a	0.06455143
26	0x3c570fd0	0.013126329
27	0xbd2a0ac7	-0.041514184
28	0xbb7d0453	-0.0038607314
29	0xbe65ddc4	-0.22447878
30	0xbd5ebd3c	-0.054379687
31	0x3d4ed284	0.050493732
32	0xbcc009af	-0.023442117
33	0xbdfdc8f7	-0.123918466
34	0x3dab088c	0.083512396
35	0x3dd4269d	0.103589274
36	0xbb1c98f8	-0.0023894887
37	0x3d263cdf	0.040585395
38	0xbcb01830	-0.021495908
39	0xbdb8e68d	-0.09028349
40	0xbc45201e	-0.012031583
41	0x3ce72e01	0.028220179
42	0xbd16e9f1	-0.036844198
43	0x3c98ab9a	0.018636514
44	0xba6bda48	-0.0008997065
45	0xbd19b6b2	-0.037527747
46	0xbb38bc76	-0.0028188503
47	0x3cc71528	0.02430208
48	0x3d8d2557	0.06891888
49	0xbd340c96	-0.043957315
50	0xbd66f739	-0.056388114
51	0x3d9d0e3c	0.076687306
52	0x3d254d37	0.04035684
53	0x3d332d1c	0.04374419
54	0xbd1da5d4	-0.038488224
55	0x3d34b08f	0.044113692
56	0x3dc70196	0.09717099
57	0xbd5b85c4	-0.053594366
58	0x3cdab085	0.0266955
59	0xbdf75941	-0.12077571
60	0x3d5d19af	0.053979572
61	0x3db2fd22	0.087396875
62	0xbdd18d1a	-0.10231991
63	0x3c6e7f93	0.014556783
64	0xbd670cc5	-0.056408662
65	0xbd897fa0	-0.06713796
66	0xbc350c01	-0.011050225
67	0xbd5c4a73	-0.053781938
68	0x3cf6c447	0.03012289
69	0xbcac8143	-0.02105773
70	0xbc34edeb	-0.011043052
71	0x3c83a8f7	0.01607178
72	0x3d3a2505	0.04544546
73	0xbd972c09	-0.07381446
74	0xbd37e896	-0.044899546
75	0x3cb00c22	0.02149016
76	0xbdeb401e	-0.11486839
77	0x3cb4bfea	0.022064168
78	0xbb86b62f	-0.0041110734
79	0x3a615474	0.00085956533
80	0xbc8648ae	-0.016392078
81	0x3d63d77e	0.05562543
82	0xbb1f437b	-0.0024301696
83	0x3e0898ba	0.1333951
84	0x3dc2dcff	0.09514808
85	0xbca05195	-0.019570151
86	0xbd49e179	-0.049287293
87	0xbd1e23ad	-0.03860824
88	0xbc55ae1b	-0.013041998
89	0x3ceb5fc4	0.028732188
90	0xbddaa2e0	-0.10675597
91	0x3d51645f	0.051121112
92	0x3c92f83f	0.017940639
93	0xbd9b3c21	-0.07579828
94	0x3d624942	0.055245645
95	0xbc5e0616	-0.013551256
96	0x3d0b4b71	0.034007493
97	0xbc8d54c4	-0.017252333
98	0xbd5eab1e	-0.05436241
99	0x3c3811fd	0.0112347575
100	0xbd741a7d	-0.059595574
101	0x3deed26e	0.1166123
102	0xbd19f25b	-0.037584644
103	0x3da43946	0.080187365
104	0xbd269293	-0.040667128
105	0x3d8fd319	0.070226856
106	0xbd77794c	-0.060418412
107	0x3d96bdb5	0.073604025
108	0xbd87d212	-0.066318646
109	0x3bd5b473	0.0065217554
110	0xbcdd8835	-0.027042488
111	0xbcc4148a	-0.023935575
112	0xbd0e28a6	-0.034706734
113	0x3d4f14d3	0.05055697
114	0xbd3c33c7	-0.045947816
115	0xbc6d781c	-0.014493968
116	0xbc13bf5b	-0.009017791
117	0x3d2e75aa	0.042592682
118	0xbcab7769	-0.020930963
119	0xbd46d1e9	-0.04854003
120	0xbd6af167	-0.057359125
121	0xb817cd04	-3.619214e-05
122	0x3dbe617d	0.09295938
123	0x3dbb3d98	0.091426075
124	0xbd610c65	-0.05494346
125	0x3ba5dfd3	0.0050620823
126	0x3c691780	0.014226794
127	0x3cd5f0b0	0.026115745
128	0xbbec094b	-0.0072032562
129	0xbb0ff431	-0.0021965618
130	0xbd4e23d3	-0.050327133
131	0x3da0ee2b	0.07857927
132	0xbdb72810	-0.08943188
133	0xbdaba81f	-0.08381676
134	0xbdcacf20	-0.09902787
135	0x3a6f3723	0.00091253425
136	0xbd9b2b20	-0.07576585
137	0x3e31906e	0.17340252
138	0x3cf3876d	0.029727662
139	0x3d880ac4	0.066426784
140	0x3e0359eb	0.1282727
141	0x3d2cdc68	0.042202383
142	0x3c6a2122	0.014290126
143	0x3d9c799c	0.07640383
144	0xbc1baf06	-0.009502178
145	0x3ca008ff	0.01953554
146	0x3c4f9351	0.0126694
147	0xbc851fdc	-0.016250543
148	0x3dfb50aa	0.12271245
149	0xbd82aa1b	-0.06380101
150	0x3ce53a56	0.027981918
151	0xbdba744c	-0.09104213
152	0x3dbfb8b4	0.09361401
153	0xbdc4a201	-0.09601212
154	0xbc05dc2d	-0.00817017
155	0x3d360f47	0.044448163
156	0xbdc3c8f0	-0.0955981
157	0xbd6e91b1	-0.05824441
158	0xbb8afb76	-0.0042414023
159	0xbdb3ab77	-0.08772939
160	0xbcc1d816	-0.023662608
161	0x3dae9fc8	0.085265696
162	0x3ccc8ea0	0.024970353
163	0x3cc10a97	0.02356462
164	0xbc793050	-0.0152092725
165	0x3daa269d	0.08308146
166	0xbd90acc0	-0.070641994
167	0x3d8be68d	0.068310834
168	0xbdc75277	-0.09732526
169	0xbd13d6fd	-0.0360937
170	0x3d6c9179	0.05775592
171	0xbd08f394	-0.03343542
172	0xbe305c47	-0.17222701
173	0x3d8bce6d	0.06826482
174	0x3c86d40c	0.016458534
175	0xbd187a93	-0.03722627
176	0xbd044ef2	-0.03230185
177	0x3de42195	0.11139218
178	0xbc121e10	-0.0089183
179	0xbd31f257	-0.043444004
180	0xbd08360a	-0.03325466
181	0xbd04c0c2	-0.03241039
182	0xbc04d519	-0.008107447
183	0x3bfffe11	0.0078122695
184	0xbb62836e	-0.0034563201
185	0xbdc17b4b	-0.094473444
186	0xbcdb55a2	-0.026774231
187	0xbd8d6f27	-0.06905966
188	0xbd72742c	-0.05919282
189	0xbd85eae9	-0.06538946
190	0xbbd6f32b	-0.0065597496
191	0x3c9fb38f	0.0194948
192	0x3d2b01b7	0.041749682
193	0x3d914616	0.07093446
194	0xbdcf0b77	-0.101096086
195	0x3db6f25f	0.08932947
196	0x3d3da9f9	0.046304677
197	0xbda29cdf	-0.07940077
198	0xbdae2351	-0.0850283
199	0xbda9a9d6	-0.08284347
200	0xbcccf145	-0.02501739
201	0xbb4c7e00	-0.0031203032
202	0x3d5b06a5	0.053473134
203	0x3bcf8d2e	0.0063339686
204	0x3bfbc8c5	0.0076838457
205	0xbc8e222b	-0.017350277
206	0x3df3a3cf	0.118964784
207	0xb9cd705b	-0.00039184358
208	0xbdcf9af2	-0.10136975
209	0xbc1a270f	-0.009408726
210	0xbd97cdde	-0.07412313
211	0x3cd114a4	0.025522538
212	0x3b21eed7	0.002470901
213	0x3ced280a	0.028949756
214	0x3ca99950	0.020702988
215	0x3ddfd7dc	0.10929844
216	0xbd649f89	-0.055816207
217	0xbd1480f0	-0.036255777
218	0x3c9b68f1	0.018970938
219	0xbcc89165	-0.024483392
220	0x3d92b1e2	0.07162835
221	0xbd765209	-0.06013683
222	0x3e312159	0.17297877
223	0xbdcab59c	-0.098979205
224	0x3c04bd64	0.008101795
225	0xbc087c29	-0.008330383
226	0x3c0bfb88	0.008543856
227	0xbd6bd788	-0.057578593
228	0x3d82487c	0.063614815
229	0xbdc68845	-0.0969396
230	0xbd85e6cd	-0.065381624
231	0xbd168d31	-0.036755744
232	0x3e03624e	0.12830469
233	0xbc99007b	-0.018676987
234	0x3df1bf92	0.11804117
235	0x3de2b11b	0.110689364
236	0x3c6e3122	0.014538081
237	0xbc8b01ab	-0.016968569
238	0x3d7802d4	0.060549572
239	0x3cc68430	0.024232954
240	0x3c3ff5a7	0.011716283
241	0x3c79c3f0	0.015244469
242	0xbdc631c7	-0.09677463
243	0x3da6ed2b	0.08150705
244	0xbd5a18e8	-0.05324641
245	0xbe2480b9	-0.16064729
246	0xbcdbe384	-0.026841886
247	0x3d162a11	0.03666121
248	0x3d151fab	0.036407154
249	0x3c210377	0.009827486
250	0xbc8f1c81	-0.017469646
251	0xbd23ff6c	-0.04003851
252	0x3dfcea9c	0.12349436
253	0xbd9a40da	-0.07531901
254	0x3d786f9e	0.06065332
255	0x3cc1d5ff	0.023661612
