Assets/ML-Agents/platformBalance/models/1.0+0.8_0.1_brain4.onnx (onnx, 321473 bytes, 7 tensors)

action_model._continuous_distribution.log_sigma f4 [1, 2]
00000000: d5fc e5bd 6ae6 ddbc
-0.112298645 -0.027087409

action_model._continuous_distribution.mu.bias f4 [2]
00000000: 1d61 0e3b a61e 263b
0.0021725364 0.0025347858

action_model._continuous_distribution.mu.weight f4 [2, 256]
00000000: c6c0 3d3b b4b5 cdbc 47b9 6c3b fd55 edba
00000010: 7d0c b33c 7532 edbb 936a b7bc 09cb 113a
00000020: 7a25 c33b f5f3 343c 5f1e debb 7dcc d2bb
00000030: e3dd 34ba f166 2b3c 5f53 d9bc 4f57 863a
00000040: ef59 ab3b a35e e33c 599d 1dbc dddf 263b
00000050: f7a2 c6bb 844c 66bc 8677 d7ba c8ef 1c3c
00000060: a290 8a3c 3c3f 373c 33c9 1dbb a08f 00bb
00000070: 6444 da3b c496 44bb 30c8 a93b 2acf d43a
00000080: 0c08 9cbc 765a 44bc d982 b83b d71e 36bb
00000090: 3b26 c7bc dac2 27bc 114c b23b cde6 97bb
000000a0: 9a8b 54ba 7b40 26bb 3ca0 e73c c13b 4c3a
000000b0: 8323 8ebb 0eba 7b3a 7426 413b f4a0 d1bb
000000c0: 1846 dc3b dea1 83bb d160 da3b a537 b2bc
000000d0: 9da9 423b d1e5 04bc eb27 5abb 5ead 093b
000000e0: dea1 0fbb 231f 9d37 8cd6 863c 4dcd 563c
000000f0: 166a 98ba 2b45 1f3b 9c25 873a 5cac 0b3c
00000100: cbd9 fc3b 7e21 4b3b 168d 39bc 5c7b 053c
00000110: 4ebf 8a3b d27c 773c 5ece a7ba b5fc 08ba
00000120: 4d3d bbbc cd75 e83b 2650 8438 d070 9c3a
00000130: 6e31 acbb 43ca 59bb f1db 273c 019f 823b
00000140: 6307 123c 5245 16bc 8fae d7bb 4521 c03b
00000150: 64d7 0f3c 5ee3 da3b 5d9b bcbb 9df1 ec3b
00000160: 98b2 76ba 415a c3ba 780f 4a3c ef7e 7bbc
00000170: 2d67 633a f6e7 043b caca 34bc b4ec 973c
00000180: d9d6 37bc a1e7 be3a 1293 9aba c2a1 14bc
00000190: cf9a 9939 4f91 423b 9ef8 613c 1dbc b1bb
000001a0: a79c 6c3c 0b6a 583c 27fc bc3c fe9b f4b9
000001b0: 6c93 8f3a 93a0 a2bb cb27 94bb 4277 8abb
000001c0: 18f8 c93b 82a5 d6ba efd7 90bb a19b 7aba
000001d0: 8ba9 9dbc 096a 42bc 4d71 ceba 7cc8 d4b9
000001e0: d54e 0f3b 8f4a 07bc 85ff db3a edc9 43bb
000001f0: c9c6 0cbb 599a 65bc 9d4d de3c 9b39 42bb
00000200: 8389 d4ba ce7a a53b 5314 6f3c ac10 4dbb
00000210: b2c2 3ebc 329a 063c 1589 65bb ec18 023c
00000220: 0742 06bc 3f4f 03bc f54c afba bee1 bb3b
00000230: e7ed 17bb 8d5e 44bb 967e 503b 5e93 67bc
00000240: dc5a 6e3b 9e72 e03b 2933 01bc 2781 c0bb
00000250: 4f74 00bb e32e b63c 587b 8d3b c387 0f3c
00000260: 64c3 0c3b c46b f8bb 1c42 cdbb 47ba 03ba
00000270: f6ce b13c c2aa 8fbb ce47 fd3b 8a0b fe39
00000280: 7dc2 093b 5cd9 163a 5837 c73b e54f a439
00000290: 4450 b73b 822a a33a 6007 d23b 75d3 043c
000002a0: 94ff 14bd 67ff bcbb 02df b63c cbec 54ba
000002b0: d337 47bc b578 c23c f5bb b7bb a770 f33a
000002c0: c6b0 c5ba 79a9 03bb d761 60ba 3d5a ce39
000002d0: b792 7abc e1e8 c63a ce86 89bc ebc9 7a3c
000002e0: da96 a23a 8832 58ba 15d1 34ba 0feb eaba
000002f0: 044a 5f3c 5556 b53b 6ac0 c63b 33a6 3c3c
00000300: bf0d 0fbc 02d5 7d3b cb02 5ebc 9a89 8b3a
00000310: f7e6 78bb ff19 d7ba e9c4 ebba fe4d a13c
00000320: 14af b3bc eeae 17bb 1062 e338 b8b1 22bb
00000330: 0304 68ba dacc 1f3c 2992 733a dc20 8c3c
00000340: bfd3 093c 2e16 76bc 5416 783c 586f 98bb
00000350: a4d9 0ebb 82aa 333c 5e33 2b3b 3442 ebba
00000360: 7ae2 e03b 3fd7 483b 531d b1b9 1bb1 253c
00000370: ae9f 463b e80c 723c d7f3 5ebc 76b4 2c3b
00000380: 08aa d5bc fe91 743a 4425 5cba f570 bc3b
00000390: b03b b439 255e 66bc 8ed1 d937 a546 d63b
000003a0: 84b9 cdbc ffa2 9739 6aca a83a ba27 a3ba
000003b0: 1d17 353b ff04 443a 539f 4bbb 0643 8fb9
000003c0: 5c1f 77bb dd11 02bb 842b 413a f26e 583a
000003d0: 01b1 66bb 24d0 e6bb 5a08 06bb 456c a3bc
000003e0: 439b f23a 1c19 1fbb 938d 68bc 2500 c13b
000003f0: 2509 adbb c345 b4bb 264d 35bb 73db 22bc
0.0028954013 -0.025111057 0.0036121176 -0.0018107292 0.02185654 -0.007238681 -0.022389686 0.00055615656
0.0059553953 0.011044492 -0.006778523 -0.0064330683 -0.0006899519 0.010461555 -0.026529012 0.0010249409
0.005229227 0.027755087 -0.009620034 0.0025463023 -0.0060619074 -0.014056329 -0.0016438819 0.009578653
0.01691467 0.01118451 -0.0024076223 -0.0019616857 0.006660985 -0.002999709 0.005181335 0.0016236056
-0.019046806 -0.011984458 0.0056308326 -0.0027789378 -0.024310222 -0.010239327 0.0054411967 -0.004635668
-0.00081079605 -0.0025368023 0.028274648 0.00077908864 -0.0043377294 0.00096026144 0.0029472383 -0.006397361
0.006722223 -0.004017099 0.0066643734 -0.021755049 0.0029703148 -0.008111433 -0.0033287953 0.0021007876
-0.0021916549 1.8730358e-05 0.016459726 0.013110471 -0.0011628296 0.0024302702 0.0010310891 0.00852498
0.0077163926 0.0030995305 -0.011325141 0.008147087 0.004234231 0.015105443 -0.0012802591 -0.00052256446
-0.022856379 0.007094121 6.309179e-05 0.0011935476 -0.005254916 -0.003323213 0.010245309 0.00398624
0.008912894 -0.009171801 -0.0065820883 0.005863341 0.0087793805 0.0066799363 -0.0057558254 0.007230951
-0.0009410768 -0.0014904217 0.01233279 -0.015350088 0.0008674737 0.002027986 -0.011034677 0.018545486
-0.011220657 0.001456488 -0.0011793098 -0.009071769 0.00029297775 0.0029688661 0.013792185 -0.005424036
0.014441646 0.013208876 0.023069454 -0.0004665553 0.0010953969 -0.0049629896 -0.0045213453 -0.0042256424
0.0061636083 -0.001637623 -0.0044202725 -0.00095599337 -0.019245883 -0.011866101 -0.0015750319 -0.00040585164
0.0021867056 -0.008257522 0.0016784525 -0.0029874996 -0.002148079 -0.01401385 0.027136618 -0.0029636386
-0.0016215298 0.00505004 0.014592248 -0.0031290455 -0.011643099 0.008215474 -0.0035024334 0.007940512
-0.008194453 -0.008014499 -0.0013374375 0.0057336977 -0.0023182572 -0.0029963583 0.0031813732 -0.014134256
0.0036370074 0.006849601 -0.007885733 -0.005874771 -0.0019600575 0.022239154 0.0043176822 0.008760395
0.0021478767 -0.007581206 -0.0062639844 -0.0005025011 0.021705132 -0.0043843696 0.007729507 0.00048455253
0.0021020465 0.0005754435 0.0060795955 0.00031340044 0.005594285 0.0012448581 0.0064095706 0.008107056
-0.03637655 -0.005767751 0.022323135 -0.0008122443 -0.012159306 0.023739198 -0.005607123 0.0018573002
-0.001508259 -0.0020090027 -0.0008559501 0.00039358615 -0.015293769 0.0015175604 -0.016787913 0.01530693
0.0012404576 -0.0008247276 -0.0006897611 -0.0017922836 0.013628487 0.005533973 0.006065418 0.011514234
-0.008731305 0.00387317 -0.013550471 0.0010645867 -0.0037979463 -0.0016410946 -0.0017987761 0.01969051
-0.02193407 -0.0023145038 0.00010842469 -0.0024825167 -0.00088506954 0.00975343 0.0009291494 0.017105512
0.008412301 -0.0150199365 0.015142042 -0.004651945 -0.0021797204 0.010965945 0.0026123147 -0.0017948807
0.0068629356 0.0030645875 -0.0003378192 0.010113026 0.003030758 0.014773585 -0.013607941 0.002635268
-0.026082054 0.0009329616 -0.0008397887 0.00575077 0.00034376746 -0.014060532 2.5965997e-05 0.006539183
-0.025112875 0.00028922406 0.0012877707 -0.0012447753 0.0027632185 0.0007477551 -0.0031070306 -0.00027325022
-0.00377079 -0.0019847073 0.000736885 0.0008256278 -0.0035200717 -0.0070438553 -0.0020451755 -0.019949088
0.0018509406 -0.002427644 -0.01419391 0.00588991 -0.005280631 -0.0055014803 -0.0027664392 -0.009940016

network_body._body_endoder.seq_layers.0.bias f4 [256]
00000000: 7967 25bc 8ec8 7cbc 7f57 c1bb 973c 04bc
00000010: c422 1dbb 558c fcb7 201d bfb6 60aa 75bc
00000020: 1a8c a8bc 1a30 82ba ef0f 33bd 4cd0 8dbc
00000030: 5d67 fabb 889b b6bb 64c5 03b6 6881 68bb
00000040: f50f 33bc ca21 34bc 5b0b 8dbc 7888 a7bc
00000050: 8e98 fcb9 3cae f5b8 15a8 afbb 9da0 073c
00000060: 83bd e6bc 0a8a 19bc 78ca b8bc 02fc 1c3b
00000070: 1928 77bc ee43 ff33 de26 12bb a487 66bc
00000080: afae 78b4 d3d7 7fbb 1ebc 72bb 8268 62bc
00000090: 4b7e de3a 9b17 f5bb 35a9 25bc 05f8 a83b
000000a0: ce7a 8ebc e590 c538 fea6 de31 4eb0 3abc
000000b0: 35a4 58bc c10d 8cbc b3d1 78bb 9eb8 fc3a
000000c0: 0668 1eb9 c802 08bd 7410 5cbc 6920 2cbb
000000d0: 2f79 c8bb 99f8 b6bb b1b8 1cba e83b 55bb
000000e0: 2f4b 94bc 7b26 3bbc 9d63 61bc 5771 84bc
000000f0: cb8d 66bc e17c 74b8 2d51 f0bc ea69 75bb
00000100: d74d 1a38 c85f 633b b9d5 12bc 1fff 44bb
00000110: a82d 5330 b1ee 54bb 0ff0 1bbc 6779 9abc
00000120: d495 2cbc 0596 09bc 7214 42bc fef5 56bc
00000130: 5258 02bd 9577 74bb bfa2 9cbc ce58 b3bc
00000140: 6da0 333c 7c1b e0bb f202 6c3c c114 10bc
00000150: bb58 b3bc af6e 70bb c15d 08bc 7ad9 56ba
00000160: 50d7 5fbc 3118 c9bc f821 e539 9436 13ba
00000170: c656 b6bb 0cbc 09bc 7b1d 4ebc c334 12bc
00000180: e06f cdb9 e505 c7bc 183b 98bc 5972 8ebc
00000190: 2170 6dbc 8608 a5bc ea94 d5bc ece9 4b29
000001a0: d2ec 93bc 7db8 47bc 2cce 73bc 7eb3 7bbb
000001b0: 0ab1 d33b 7bc2 2e3d f1ba 57bc d526 39bc
000001c0: f58a ceb8 6c21 7abc 0a06 a1bc 041e a7bb
000001d0: cd2d 13b7 916a d7bb e962 15bb 4ba7 c7bb
000001e0: 7cb3 eebb 018e 02bc 0e34 e3bb b8b5 56bc
000001f0: d993 c4b1 0d32 80ba 6069 f7bb 8cb2 a4bc
00000200: f451 19bc e801 60bc 2f83 89bb fe80 8abb
00000210: 45e1 d0ba 5381 383c 292f 4d3a ebd8 b9bb
00000220: dc0a 193a 36fd babb 7bf5 44bc 76c2 cdb7
00000230: 6f76 c9ba d687 6e36 cba4 4bbc 8980 dbbb
00000240: e54e 8cbb cf43 8bb9 5c93 f4bc ef0c 8db3
00000250: a09a 30bc 06fe a9bb bbe3 49bc 1d7b 71bc
00000260: ea44 1dbc b54f 45bb 5231 b4bc 3011 18bc
00000270: bd05 5ebb 63c0 88bb 7748 9abb 8a6e e3ba
00000280: 1929 83b6 ae53 af3a 2727 26bc 25ea ddb6
00000290: 5b07 fd3a 9c0e 25bc 14b8 6cbc af83 bdbb
000002a0: 6f6d 893a 540d fabc 3bc0 56bc 020f 9abb
000002b0: 1230 f83a 651d c4bc 6ad6 a03b 7c6c 13bc
000002c0: b9a3 bdbb d252 4ebb b355 47bc 9e1c 8cbc
000002d0: 1a6d dfbb 5379 8a3b 6fbc 56bb f1d0 80bc
000002e0: c6c1 a0bc 8a54 bfbc 807d 7c37 cf6b 64ba
000002f0: 4b05 b6bb 2769 1cbc a0c5 29bc 577d d43a
00000300: ef02 29bc 6885 41bc 76c7 0abc fec9 60bb
00000310: 8115 ee33 d4ea 19bc 4250 9abb 1bfd 7bbc
00000320: 477e e13b c15b 50bc 6f6e aa3a 1319 4cbc
00000330: f183 11bc aea9 e9bb 17cc 093c 16a8 44bb
00000340: 4683 86bc 37e7 13ba 0bb3 afbb bf80 01bc
00000350: 7ceb 94bc 7616 88b7 d530 a7bc b363 c2bb
00000360: 3c3b b0ba d28b 3abc b5de 19bc b51c 04bc
00000370: 9952 fabb f0f8 c1bb bf79 7bba 9185 04bc
00000380: 1186 e7bb 0c09 15bc a489 8bbb 86fa 21bc
00000390: 1c96 59bb 8e1d 52bc 39c2 2fbc c304 8bbc
000003a0: ef01 fc3b 3c7b 9abb 9ecc ddbb 023c aa28
000003b0: 2343 c0bc 5402 b9bc 32b9 123c aa6c 07bd
000003c0: 1ee3 813a c0ba 85bc 8e58 e9bc cfa4 9cbb
000003d0: d88b 44bc 7d27 52bc 9baf 3bbc d6b1 d2bc
000003e0: fa3b ddbc c2c7 33bb 0364 c0bb 7d82 15bc
000003f0: f6fe 53bc 7464 43bc 8b0d b1bc 8900 96bc
-0.010095471 -0.015428675 -0.005900323 -0.008071086 -0.002397702 -3.0106088e-05 -5.695634e-06 -0.014994234
-0.020574618 -0.0009932548 -0.043716367 -0.017311238 -0.0076417164 -0.00557274 -1.9635418e-06 -0.0035477523
-0.010929097 -0.010994384 -0.017217329 -0.020450816 -0.00048178848 -0.00011714964 -0.005360613 0.008278039
-0.028166538 -0.00937129 -0.022557482 0.002395392 -0.015085244 1.1886719e-07 -0.0022300999 -0.014070425
-2.316035e-07 -0.0039038553 -0.0037038396 -0.013818862 0.0016974894 -0.0074796206 -0.010111143 0.0051565194
-0.017392542 9.420681e-05 6.480035e-09 -0.011394573 -0.013222744 -0.017096402 -0.0037966787 0.0019281094
-0.00015106806 -0.033205777 -0.013431657 -0.0026264435 -0.006117962 -0.0055838344 -0.0005978449 -0.0032536928
-0.018102257 -0.011422749 -0.01375666 -0.016167326 -0.014071892 -5.8290436e-05 -0.029335583 -0.0037447163
3.6788955e-05 0.0034694541 -0.008962088 -0.003005929 7.6826234e-10 -0.0032490904 -0.009517684 -0.018856717
-0.010533769 -0.008397584 -0.011845695 -0.013120173 -0.03182251 -0.0037302722 -0.019120572 -0.021892931
0.010963541 -0.006839214 0.014404999 -0.008794011 -0.021892896 -0.0036687066 -0.008323134 -0.00081958587
-0.013662174 -0.024547668 0.00043703592 -0.0005615738 -0.0055645434 -0.00840665 -0.012580271 -0.008923712
-0.00039184 -0.024294803 -0.018582866 -0.01738851 -0.014492066 -0.020145666 -0.026071984 4.527795e-14
-0.01805726 -0.0121899815 -0.014880698 -0.0038406546 0.0064603137 0.04266594 -0.013167129 -0.011300762
-9.848728e-05 -0.015266757 -0.0196562 -0.0051000137 -8.772547e-06 -0.006573983 -0.002279455 -0.006092941
-0.00728458 -0.007968427 -0.0069336956 -0.013104849 -5.721159e-09 -0.0009780541 -0.0075504035 -0.020104669
-0.009357918 -0.0136723295 -0.0041965465 -0.004226803 -0.0015936276 0.011261302 0.0007827157 -0.0056716106
0.0005838105 -0.0057064546 -0.012021418 -2.4528457e-05 -0.0015370379 3.554383e-06 -0.012429426 -0.006698672
-0.004281866 -0.00026562667 -0.029855423 -6.568177e-08 -0.010779053 -0.0051877527 -0.012322362 -0.014738825
-0.00959895 -0.0030107324 -0.021996174 -0.009281442 -0.0033877932 -0.004173325 -0.0047083455 -0.0017351669
-3.9088886e-06 0.0013376379 -0.010141171 -6.6135713e-06 0.001930456 -0.010074284 -0.0144481845 -0.00578352
0.0010484884 -0.030523933 -0.013107355 -0.004701496 0.0018935225 -0.023939798 0.0049083726 -0.008998033
-0.0057873395 -0.003148247 -0.012166428 -0.01710349 -0.006818426 0.0042258888 -0.0032766124 -0.015724631
-0.019623648 -0.023355741 1.5049591e-05 -0.00087135745 -0.00555483 -0.009546555 -0.010362059 0.0016211671
-0.010315641 -0.011811592 -0.008470407 -0.0034300084 1.108665e-07 -0.009394366 -0.0047092745 -0.015380169
0.0068815085 -0.012717188 0.0013002882 -0.01245715 -0.008881555 -0.007130823 0.008410475 -0.0030007414
-0.016420018 -0.00056420587 -0.0053619198 -0.007904231 -0.018178694 -1.6222923e-05 -0.020409027 -0.005932295
-0.0013445388 -0.011385875 -0.009391476 -0.008063485 -0.007639241 -0.0059195682 -0.0009593032 -0.008088485
-0.0070655425 -0.009096395 -0.0042583514 -0.00988639 -0.0033201044 -0.012824429 -0.010727459 -0.016970044
0.00769066 -0.0047143977 -0.006768777 1.8899816e-14 -0.023469513 -0.022584118 0.008955287 -0.033062615
0.0009909605 -0.0163244 -0.028484609 -0.004780389 -0.011996232 -0.012826798 -0.011455442 -0.025719564
-0.027006138 -0.0027432297 -0.0058712973 -0.009125349 -0.012939205 -0.011925805 -0.021612903 -0.018310802

network_body._body_endoder.seq_layers.0.weight f4 [256, 52]
00000000: ed3a cb3d 2546 28be 89a9 103e 7448 453e
00000010: bba6 5c3c 97f5 b83c 74f1 63bd 2732 d53d
00000020: 7872 0a3e b905 223e f2b6 66bd d666 23be
00000030: e52d c6bd 09ab a8bd 50f1 adbd e549 b3bd
00000040: 572b 8dbd 33aa 83bc 1b9a 5bbe 5368 d2bd
00000050: b4e6 81bd f247 06be 9693 3f3e 370f 163e
00000060: f82b db3d cb2b 4c3e 32ef 573e fb6e 33be
00000070: ee40 133d 764d 9e3e 7410 fd3d c6b8 873d
00000080: a2d7 ce3c 3f1d 8c3e 61de 783d eda5 c03d
00000090: c33f 17be 98ec d03d 949f 94bd e69d 37be
000000a0: deb8 01be c625 d43d c0ab 89bd fbb7 fdbd
000000b0: 53ea f93d 7ec7 93be 1fe8 413e 8c60 00be
000000c0: 4d5f e33c 5b21 00bd aa18 2c3d b502 f2bc
000000d0: abd1 1b3e 15e5 77bd 05f2 a93d 664d 08bd
000000e0: df46 b7bd 32f2 6d3d 1e59 f3bc 873e de3d
000000f0: 23d7 4b3e dd67 86be 9bd2 b0bc 0294 90be
00000100: 4c66 0dbd 1192 913d c803 50bd b2b5 f9bd
00000110: 86ea 8f3d 0acf 0ebc 644c 10bd cc30 afbd
00000120: dfad 223e 5437 45be 9bbd 043e b99c 0abd
00000130: 69dd 3ebe 22ff 093c 7cc0 a9bd a7c2 8a3d
00000140: 4963 db3d 7092 b1bd b3aa 5f3d 12b4 1f3e
00000150: d322 59bd 3a67 adbe 9d6b ad3c 076e 253d
00000160: d8df 13be 5c25 84bd fb8f 2c3e 1111 b5bd
00000170: ed25 2ebd f4f4 ad3d c5aa 5c3d a6f1 07bc
00000180: 22cc 25ba ab1e 2bbe 47a5 90ba 3cdd 773c
00000190: 4ba8 9fbd 9aa7 26bd 639a 57be 4834 0cbe
000001a0: 1c1a 4bbe 6136 fa3c 0e4e b03d ebcf c53d
000001b0: 8781 03be 4cbd 09be cb13 36be 8b41 52bd
000001c0: a4eb 9c3b b2c4 ab3d afca 1f3e f141 15bd
000001d0: 89ad 723e acc4 babd 5052 333d 8c08 40be
000001e0: fcac cd3d ce05 ab3c d61e d2bd 42ad be3c
000001f0: e093 3f3c b8bd 293e 3193 b33d 6ba3 123e
00000200: 02b2 543d fdee afbd b978 85bc d74e 403d
00000210: f672 8e3d 62e1 52be 044a febd a8f8 913d
00000220: 399b e53b 423d 873b 5e35 b7bd b621 eabd
00000230: c777 9abe 282b 463c 4920 2f3e ab63 22be
00000240: 0bdf 3c3e 8d98 1e3e 9905 21bd 6b4c 4cbc
00000250: 32b2 603d c99c 993e 5f18 673e 2f5c 873e
00000260: f7e7 9b3d 94df 95bd c72b 683d 99ed 25be
00000270: 2d46 df3c 90cc b83d 46fc 8f3d 730d a43d
00000280: 32e2 db3d 9415 c73d 5fc3 193a 1d06 203e
00000290: 0aae 89be eacc c6be bd5b 853d 2013 08bc
000002a0: af44 1abe 8b9a 77be 578f cfbd c5f8 7a3d
000002b0: d6d4 77bd 483e a0bd f951 623e 439e 2d3d
000002c0: 04ed 6d3e e46b 7d3d 4a56 8b3d 3a52 06be
000002d0: 772a 583d 011a 2a3d cd91 b0be 73fa 473d
000002e0: c8d9 ac3c 48a1 733d ca29 bf3d 6451 81bd
000002f0: 6f88 83bd 4e30 9c3c 45a8 9a3d c959 f83c
00000300: 7eb6 313c b00f 983d 117c b6bc d7ca 073d
00000310: a8e3 c3bc 0174 2bbc 942e 473e 001b 62bd
00000320: 39b5 913d 5767 b93d e8d1 953d 723b 84bd
00000330: 1ac8 1cbe b0ce 3cbe 0ed5 313e 14b7 d4bd
00000340: d762 86bd 5ca9 ca3a 7a5d 5f3d 5d8b 813d
00000350: 0be2 703e 258a 653e a54a 583e e772 dcbb
00000360: cabd 513e ad99 013e e90c 9abd 181e 8e3d
00000370: 003e 9ebd abc3 3d3d ff27 283e 982d 39be
00000380: 5c14 413e b2fd dabd b67e 98bd c04b 973d
00000390: db66 86bd c118 83bd 6944 b8bc a87c 043e
000003a0: c70b 9cbe 9075 25bd bba9 03be 4ffc 9bbb
000003b0: 1d0d 50be ce51 293c f8b7 a1be 367f 473e
000003c0: 9e71 7e3d 1f37 5cbe 1f12 02be 0523 c43d
000003d0: 88c5 b3bd bd69 803d c1f5 a73d 1075 20bd
000003e0: 57b8 93bd 1f12 7abd 95dc ca3d 3341 c5bd
000003f0: afae 133e 2aef 043e c583 943e 2234 033c
0.099233486 -0.16433008 0.14127173 0.1926592 0.013467486 0.022578044 -0.05565019 0.104099564
0.13520229 0.15822496 -0.056326814 -0.15957198 -0.096767224 -0.08235747 -0.08493292 -0.08754329
-0.06893032 -0.016072368 -0.21445505 -0.102738045 -0.06342831 -0.13113382 0.18708643 0.14654242
0.10701746 0.1993858 0.2108734 -0.17522804 0.035950594 0.30918473 0.12356654 0.066270396
0.025249306 0.27366063 0.060758952 0.09406648 -0.14770417 0.10201377 -0.072569996 -0.17931327
-0.12668177 0.10358767 -0.06722212 -0.12388607 0.12202897 -0.28863138 0.18936203 -0.1253683
0.027755404 -0.03128181 0.04201571 -0.029542306 0.152167 -0.060521204 0.08298115 -0.033276938
-0.089490645 0.058092304 -0.02970558 0.1085177 0.19906287 -0.26251116 -0.0215848 -0.2823792
-0.034521386 0.07107938 -0.050784856 -0.12192859 0.07027154 -0.008716354 -0.0352291 -0.08554229
0.15886639 -0.19259387 0.12962954 -0.03384087 -0.18639149 0.008422645 -0.082886666 0.06775408
0.107122965 -0.08670509 0.05460615 0.15596035 -0.053011727 -0.33867818 0.021169478 0.040388133
-0.14440858 -0.06452438 0.16851799 -0.08841146 -0.042516638 0.08493987 0.053873796 -0.00829736
-0.00063246686 -0.16710918 -0.0011035585 0.01512843 -0.07795771 -0.04068718 -0.21054988 -0.13691819
-0.19834179 0.030543508 0.08608638 0.09658798 -0.1284238 -0.13451117 -0.17780988 -0.051332038
0.0047888327 0.08387126 0.15604661 -0.03643984 0.23699011 -0.091195434 0.04377967 -0.1875326
0.1004276 0.020876791 -0.10259788 0.023275975 0.011692971 0.16576278 0.08768309 0.14320152
0.051927574 -0.08590505 -0.016292917 0.046950188 0.06955521 -0.20593789 -0.12416461 0.071275055
0.0070070294 0.0041271755 -0.08945726 -0.11432211 -0.30169508 0.01209525 0.1710216 -0.15858333
0.18444459 0.15487881 -0.03931198 -0.012469391 0.05485744 0.3000243 0.2256789 0.26437518
0.07612603 -0.07318035 0.056682374 -0.16203918 0.027255142 0.09023392 0.07030539 0.08010378
0.10736503 0.097209126 0.00058655994 0.15627332 -0.26890594 -0.38828212 0.06511638 -0.008305341
-0.15065263 -0.24180047 -0.10134762 0.0612724 -0.06050571 -0.07824379 0.22101583 0.04238726
0.23234946 0.06187047 0.06803568 -0.13117304 0.052774873 0.041528706 -0.34486237 0.04882283
0.02109994 0.05947998 0.093341425 -0.06314352 -0.06422507 0.019066002 0.07551626 0.03031625
0.010846732 0.07424867 -0.022275956 0.033152428 -0.023912266 -0.010464669 0.19451362 -0.05520153
0.071146436 0.09052914 0.07315427 -0.06456651 -0.15310708 -0.1843822 0.1736643 -0.10386482
-0.06561821 0.001546185 0.054532506 0.063254096 0.23523729 0.22415979 0.21122225 -0.0067275646
0.20482555 0.12656279 -0.07521994 0.06939334 -0.07726669 0.04632918 0.16421507 -0.18083799
0.18855423 -0.1069292 -0.07446043 0.07387495 -0.06562587 -0.06401206 -0.022493558 0.12938178
-0.30477735 -0.04039532 -0.12857716 -0.004760302 -0.20317502 0.010334445 -0.3158567 0.19482121
0.062120073 -0.21505402 -0.12702225 0.09576992 -0.087779105 0.06270168 0.08201171 -0.03917414
-0.072128944 -0.061052438 0.09905354 -0.096315764 0.14422105 0.12981859 0.29006782 0.008008035

network_body._body_endoder.seq_layers.2.bias f4 [256]
00000000: c91f cabb 2f50 daba c939 973a f863 b7bc
00000010: ca02 10bb a9da 53b9 b731 aabb 1255 90bb
00000020: 637a 0ebc 09b5 e6bb 71d1 44bb 0430 9ebb
00000030: 22df bebb 7783 203a ca2d 083b 5f2f b0bb
00000040: db1f 0bbc 1a56 29bb 73d1 13bc d9a1 46bc
00000050: 6d10 ffbb 8f7e d6bb 7e4e 0bbc f7a0 14bc
00000060: 826f 2fbb a3e2 01b9 233e 17bc e118 60ba
00000070: 3901 83bc 7a35 acbb bba5 84bb 5bbc d8bb
00000080: e7ff 3cbb 4897 10bc 894d 28bb c4dd 87bb
00000090: f141 e03b a9e5 c4bb 4587 b9bb b63d 44bc
000000a0: 8667 1ebc 6eba 8c3a 9d33 ad3a 54f3 c1bb
000000b0: a97c 4bbc 4a23 2abc 986a 00bc d6e3 7bbb
000000c0: 3fce 6bbb 49bf 5bbc 3228 c439 5121 87bb
000000d0: 14db 4abb 549b 2abc c8d4 c5bb 3b4b 23bc
000000e0: 435f 10bc f2a1 44bc ebc9 92b6 d157 2bbc
000000f0: ebdd c8bb 0b40 1dbc 32b2 54bc 3092 22bb
00000100: ee30 31bc 0fe4 5bbc ba49 833b 3a87 0bbc
00000110: b198 1dbc 4e69 84bb b0f0 d3bb 0449 83bc
00000120: 3821 8f3a d4bf 0abc 4b12 2abc 4bd9 e9bb
00000130: 7b28 99bb d90d 0bbc 149d f8bb 7640 48bb
00000140: 6dee 04bc e0cf 98bb 73aa 19bc 2893 15bc
00000150: 2aef a7bb 8291 3538 696b 14bc 1ac5 5339
00000160: 165b 66bb 82ee 39bb 5892 8cbb 88df 5bbc
00000170: 555a b6ba dd0a babb 7a12 83bb 568c 3dbc
00000180: 487f c4bb 975f 19bc 8b07 5ebb 716d 09bc
00000190: 0241 17bc eb8a 3ebc fd78 dfbb 951f 53bc
000001a0: a8af f4bb 9d19 2ebc 6dbe 28bc 434a 8cbb
000001b0: 3b18 27bc f2c4 cabb 0dfc cabb 7fe7 8bbb
000001c0: 3d48 f8ba 2d62 e2bb 2989 00bb 2598 adbb
000001d0: 61d3 1dbc 9558 d5bb c7f2 22bc da56 a5bc
000001e0: 10f4 3fbc dbd4 e0ba 18a6 58bc 7ed7 93bb
000001f0: 307f daba ad5a d8bb 3085 0dbb 9cbc d0bb
00000200: 13d2 0abc b76c 05bc 3c12 763b 7df9 01bc
00000210: af3c fa39 63ee ddbb 3cb3 4dbc a393 bebb
00000220: eb85 07bc f022 bcbb 94da d2bb 09f1 06bc
00000230: 03ee febb 4447 923a b3d8 0abc 3281 0cbb
00000240: a23a 15bc 03d2 33bc b314 f4bb 93e9 a6bb
00000250: 3b30 aeb5 e869 933b 9d4f 8ebb 4831 3abc
00000260: 9950 053b 9a85 5cbb 1658 7e3b 4cf6 b5bb
00000270: 58cf bebb a343 4cbc b472 49bb 7525 85bc
00000280: 852d 28bc 88fa 33bc 55c7 e5bb 18c0 5ebc
00000290: 9bec 7d3a e568 e2bb d7ad 28bc 94c9 9cb9
000002a0: 4be2 883b 88a9 5a3a 5fa3 3e3b ba5d f6bb
000002b0: 16dc abbb ca44 44bb 544f 1cbc ea97 c2bb
000002c0: 0116 d9b7 7ed2 1dbc b70e 19bc a780 1fbc
000002d0: 5212 19bc 3526 70bc eccc 90bb bf4a 1abc
000002e0: cdc5 3abc 368b 4cbc e781 8bbb 0b7b 02bc
000002f0: 780e 1ebb c230 e0bb 148f e5ba 55d7 debb
00000300: fc24 7ebb 1611 95b9 dc87 dfbb b0b8 2dbc
00000310: 9c5f d0bb a030 09bc 75ab 9bbb 0dc9 e3bb
00000320: d2b4 11bc c624 15bc 331e f7bb 3b61 e8bb
00000330: d6fc 3ebc 38a1 41bc d351 8abc ba8a abba
00000340: 94f0 72bb 6207 85bc b820 e0bb fb92 02bc
00000350: 8cd3 fcbb d9f9 09bc 0cc7 e6bb 1a69 10ba
00000360: 7a6a 26bc 22bc cabb 9856 08bc 822b d4bb
00000370: 717a fabb 702f 773a badd 863a 3264 11bc
00000380: e0d4 2ebb cbdc 79bc fb46 74bb b64c 12bc
00000390: 64a3 dbbb da72 28bc 01f6 eebb d509 f1bb
000003a0: 1112 d5ba fad3 04bc 2fa7 b9bb 325b 2bbc
000003b0: e5ca 6cbc 0556 2ebc e316 2dbc 83e2 3cbc
000003c0: a454 35bb 68bc 5fbb 9072 0dbc 0220 34bc
000003d0: 2da6 b4bb 0874 e3bb aead 4dbc 14a2 903b
000003e0: 4fee 9bbb 356e 0cbc 7495 80ba b3dd 57bb
000003f0: fa46 11bc cbfa f0bb e4cb 43bb b228 dabb
-0.00616834 -0.0016655977 0.0011537607 -0.022386536 -0.0021974319 -0.00020203985 -0.0051939148 -0.0044046724
-0.008696171 -0.007040624 -0.0030032063 -0.0048275013 -0.0058249393 0.00061231054 0.0020779246 -0.005376741
-0.008491482 -0.0025838674 -0.009022105 -0.012123548 -0.0077839405 -0.0065458487 -0.008502601 -0.00907158
-0.0026769345 -0.00012386827 -0.009231123 -0.0008548629 -0.015991794 -0.0052553983 -0.004048077 -0.0066142506
-0.0028839053 -0.008825131 -0.002568098 -0.0041463096 0.0068437983 -0.006008823 -0.0056618773 -0.011977604
-0.009668237 0.0010736713 0.0013214234 -0.0059188996 -0.012419858 -0.01038439 -0.007837914 -0.0038435361
-0.0035981087 -0.013412305 0.0003741398 -0.0041238447 -0.0030953335 -0.01041301 -0.0060373284 -0.009966667
-0.008811775 -0.012001501 -4.3746454e-06 -0.010457949 -0.0061299703 -0.009597789 -0.012981938 -0.0024806373
-0.010814888 -0.013421073 0.0040065916 -0.008516127 -0.009618924 -0.0040408736 -0.006467901 -0.016026028
0.0010919934 -0.008468587 -0.010380338 -0.007136499 -0.004674015 -0.008487188 -0.0075870845 -0.0030556
-0.008113486 -0.0046634525 -0.009379017 -0.009129323 -0.005124946 4.3289278e-05 -0.009058812 0.00020195954
-0.0035149506 -0.0028370922 -0.0042899065 -0.013419993 -0.0013912419 -0.0056775645 -0.0040000053 -0.011569103
-0.0059966184 -0.009361169 -0.0033879008 -0.008387909 -0.009231808 -0.0116298 -0.006819843 -0.012885948
-0.007467229 -0.010626224 -0.010299307 -0.0042813136 -0.010198648 -0.0061880285 -0.0061945976 -0.00426954
-0.0018942427 -0.006908676 -0.0019613004 -0.005297678 -0.009632916 -0.006510804 -0.009945578 -0.020183016
-0.011715904 -0.001715328 -0.013223194 -0.0045117727 -0.0016669985 -0.0066026063 -0.0021594279 -0.0063701402
-0.008472937 -0.008143595 0.003754749 -0.007933018 0.0004772893 -0.0067728027 -0.01255494 -0.0058159395
-0.008271675 -0.0057414696 -0.006434748 -0.008236178 -0.007779838 0.0011160155 -0.008474517 -0.002143931
-0.009108217 -0.010975364 -0.0074487566 -0.005093762 -1.2978047e-06 0.004498709 -0.0043429867 -0.011364289
0.002034223 -0.0033648969 0.0038809828 -0.0055530425 -0.005823057 -0.012467298 -0.0030738534 -0.016253212
-0.010264759 -0.010985024 -0.0070122876 -0.013595603 0.0009686441 -0.006909477 -0.010295353 -0.00029904826
0.004177367 0.0008341302 0.0029089076 -0.0075184973 -0.005244742 -0.0029948228 -0.009540398 -0.0059385197
-2.5878662e-05 -0.009632705 -0.009341887 -0.009735263 -0.009342747 -0.014657547 -0.00441896 -0.009417235
-0.011399698 -0.012484362 -0.004257429 -0.007963906 -0.002411751 -0.00684175 -0.0017513954 -0.006800572
-0.0038779369 -0.00028432225 -0.0068216156 -0.010603115 -0.006359054 -0.0083734095 -0.004750664 -0.0069514574
-0.008893209 -0.009103006 -0.007541442 -0.007091669 -0.0116569605 -0.011818223 -0.01688472 -0.0013087608
-0.0037069665 -0.016238872 -0.006839838 -0.007969613 -0.007715648 -0.008421385 -0.007042771 -0.00055088254
-0.010157222 -0.006186978 -0.008321427 -0.006474913 -0.0076439907 0.0009429371 0.0010289468 -0.008873986
-0.0026677176 -0.015250395 -0.0037273753 -0.008929422 -0.0067028273 -0.010281289 -0.0072925095 -0.0073559084
-0.0016255995 -0.00810718 -0.005665682 -0.010458754 -0.014452671 -0.010640626 -0.010564539 -0.011528614
-0.0027668858 -0.0034139398 -0.008633271 -0.010993959 -0.0055129738 -0.0069413222 -0.0125536155 0.0044138525
-0.004758633 -0.008571197 -0.0009810166 -0.003293854 -0.00886702 -0.0073541156 -0.0029876167 -0.0066576833

network_body._body_endoder.seq_layers.2.weight f4 [256, 256]
00000000: 6d1a 78bd e4d6 263e d303 a13d d5f9 be3a
00000010: 5ae1 b53c b76c 3a3c 60e8 1bbe 57bf 6a3d
00000020: 6816 2abd 29e1 1b3d ea66 07bd 0b18 c53c
00000030: 8c79 0ebd b2b4 18be 299f 1f3d 029b abbb
00000040: c5a9 b9bb dc12 813d 14e9 44bd bf62 b0bc
00000050: 8c75 36bd 1bbc 5abd 0c7d acbd bcdc 4f3c
00000060: 6322 acbd 6bd8 db3c 86cd 573c 3143 333c
00000070: 3769 863d 1acd dc3d b538 1ebc 73a4 0d3c
00000080: 91e8 9ebc cf61 f8bb f4ca b13d d798 b5bd
00000090: b92f 93bb bcf7 aabd 1399 15bc 7a09 fbbc
000000a0: f967 54bd af93 95bd 8c93 b0bd ed59 8b3d
000000b0: 0015 65bc 7c78 2abd 5587 24bd 1954 5abd
000000c0: 9f81 0fbe dafb 8e3c 79b0 a1bd dd03 c03d
000000d0: eac9 073e ed38 11bc 19d2 de3d b851 e8bd
000000e0: 2b5a 13be 2bc1 613d be2e 66bd 79af ae3d
000000f0: 5951 5f3d fada 06bd c3b8 f6bb 249a 363c
00000100: 8273 a8bd 8d8f b13c 57df 753d c1f4 f1bb
00000110: b0c7 26bd ac89 a5bc dafd eebc d243 20bd
00000120: 89b6 463d 097c 493d 7e3a 84bb cbf8 11be
00000130: bee1 1abc 6b9a f0bc e402 883d 618a e6bd
00000140: d548 9f3b def4 8b3d dc40 b03d 9cf8 1dbe
00000150: 18a9 98bc df79 d7bd 4dae 1b3d 62fb 823d
00000160: 5f71 323d 4435 e2bd 8efb 53bd 65f4 9bbd
00000170: 3a80 17bd 9ce2 20be 1b5d c4bc 96d3 a7bc
00000180: 2dee ff3b f475 eabb ceb7 81bd 0695 4cbd
00000190: bb48 9f3d 7734 e33c 8d7e 873d 1689 4f3c
000001a0: 2e97 a83d 033f d73d a1cc d93d f48b 5c3b
000001b0: f0f0 31bd 66f5 b63d 375a 61bd 2ec2 89bc
000001c0: 89ee 893d 4690 58bd f2d3 abbc c221 d53c
000001d0: ee1d b5bd 4fac d2bc c6fa 133b c79d b5bc
000001e0: 7803 613c 1cc9 7e3c aad1 c93d 3032 c1bd
000001f0: 3ead 5cbc fb3c 253c d032 f3bb 0687 d7bc
00000200: 1216 b93c e9ae 17be bd49 adbc 77f2 5f3c
00000210: a017 b6bc 4fa0 f8bb 31cd 8abd 3709 a13c
00000220: cf1c 173c 3a24 0d3d 317f 253d b12b e73d
00000230: e7f0 e9bb 89f8 08bd 3407 13bd 36bf ec3c
00000240: 1a51 5c3d ade9 92bc f2d6 c8b9 d317 00be
00000250: 2a7a 833d 8db3 033d a97d 39bd 6185 1cbd
00000260: 5d73 88bd 8348 d9bd 4e8b c1bc 64c8 293d
00000270: b487 53bb 66e4 c2bd a5b6 5b3b 8d03 543d
00000280: 46f7 083c c48f 9e3c 8b2a 003d 08ef be3b
00000290: 2df7 2abd fb74 bd3d 9ec1 003d 15e3 9c3a
000002a0: 6a56 f03b e628 d9bd 97b8 493d 37ed f0bd
000002b0: c149 13bd 6e1b a43d 07c6 e73d 18f2 203d
000002c0: 02a8 0e3e 9bdd 01bb fffb 75bd 1271 e2bd
000002d0: 2eaa cebc 2ddc b3bd a58f 0a3d c3de a1bd
000002e0: 93c2 8d3d 0337 883d 514a ed3c b69e 76bd
000002f0: a3e5 46bd 4dd8 38bc eddc a33d 82c6 e7bd
00000300: be0b 90bc f1d2 463d b099 2e3e eeab 5ebc
00000310: f75b 67bd d234 6a3d 3fbf cf3c 23b9 7ebd
00000320: 185c 34bd 8da2 993c 622e 47bc 9d95 9d3c
00000330: 6768 25bd fb0a 86bd b727 77bc 2475 0fbd
00000340: 1a1d 33bd 6eac 8f3c 8e80 293d ba54 003c
00000350: 379a 1cbd c892 9cbc b6bc 2e3e e9f1 2f3d
00000360: 35aa 86bc 90cc 403d f844 f73d 7f47 19be
00000370: d025 b4bd 9029 f2bd 4d6a 833d 3e01 b93d
00000380: 9c2b 68bd 5d3f 3c3d 4d59 f03d a089 553d
00000390: 029f 093e d1f9 58bd bd29 a6bd e0ba 0d3d
000003a0: 68e4 cabc 1d7f 9e3c 75c2 16bd c72c bd3d
000003b0: ee94 8dbd b6f5 993b 9a26 723d 93c4 c9bd
000003c0: b432 933d 62ff 1ebd 5559 afbb ba40 e83c
000003d0: eb43 073d fa52 e7bc 3f7c c1bc bc75 30bd
000003e0: 0f40 65bb c95c 56bc b7d7 973b 34f1 85bc
000003f0: 6efc 84bc d274 3a3d 5440 2e3a 2d45 1f3d
-0.060572077 0.16292912 0.078620575 0.0014570305 0.022202183 0.011378459 -0.15225363 0.057311382
-0.041525275 0.038056526 -0.03305713 0.024059316 -0.034783885 -0.1491268 0.038970146 -0.005236984
-0.00566599 0.06302425 -0.048073843 -0.02153146 -0.044545695 -0.053402048 -0.08422288 0.0126869045
-0.08404996 0.026836595 0.013171559 0.010941313 0.06563037 0.107813075 -0.009657075 0.008645165
-0.019398006 -0.007580019 0.08681288 -0.088670425 -0.004491773 -0.08348033 -0.009130734 -0.030644167
-0.05185697 -0.07303559 -0.08621892 0.06804261 -0.013982058 -0.04161881 -0.040168125 -0.053302858
-0.1401429 0.017454077 -0.078949876 0.09375737 0.13260618 -0.00886367 0.10879917 -0.113437116
-0.14389865 0.05511586 -0.05619692 0.085295625 0.05452094 -0.032923676 -0.0075293495 0.011145148
-0.08225156 0.021674896 0.060027447 -0.0073839133 -0.04071778 -0.020207249 -0.02917378 -0.03912718
0.048513923 0.049190555 -0.004035293 -0.14255063 -0.009453235 -0.029370507 0.06641176 -0.112568624
0.004860977 0.06833814 0.08606121 -0.15426868 -0.018635318 -0.10521292 0.038008023 0.06395604
0.04356515 -0.11045316 -0.051753573 -0.07614974 -0.03698752 -0.15711445 -0.023970177 -0.020486634
0.007810375 -0.0071551744 -0.06333886 -0.049946807 0.07777544 0.027734978 0.066159345 0.012666961
0.0823196 0.105100654 0.10634733 0.0033652755 -0.043442667 0.08933525 -0.055017676 -0.016816225
0.0673495 -0.052871965 -0.020975087 0.026017074 -0.08843599 -0.025716929 0.0022579893 -0.02216996
0.013733737 0.015550878 0.09854443 -0.09433401 -0.0134690385 0.01008534 -0.007421829 -0.026309501
0.022593532 -0.14812817 -0.021153325 0.013668648 -0.022228062 -0.0075874696 -0.067774184 0.019657714
0.009223177 0.034458376 0.040404502 0.1128763 -0.0071393135 -0.033440147 -0.03589554 0.02889977
0.053788282 -0.01793369 -0.0003830712 -0.12509088 0.06419785 0.032153655 -0.045285854 -0.038213138
-0.06662629 -0.10609534 -0.023625996 0.041450873 -0.003227693 -0.0951622 0.0033525613 0.0517612
0.008359736 0.019355662 0.031290572 0.0058268346 -0.04173963 0.09250828 0.031434648 0.0011969531
0.00733452 -0.10603504 0.049248304 -0.11763995 -0.03595901 0.08013044 0.113170676 0.03929338
0.13931277 -0.0019815925 -0.060054775 -0.11056723 -0.025227632 -0.087822296 0.033828396 -0.079038166
0.06921878 0.06651118 0.0289661 -0.060209952 -0.048558842 -0.011282039 0.080011226 -0.11317159
-0.017583724 0.048541013 0.17050815 -0.013590796 -0.05648419 0.05717928 0.025359748 -0.06218828
-0.04403314 0.018754268 -0.012157055 0.01923638 -0.04038277 -0.06545063 -0.015085152 -0.035023823
-0.043728925 0.017538276 0.041382365 0.0078327 -0.03823301 -0.01911296 0.17064175 0.042955313
-0.016438583 0.047070086 0.120737016 -0.1496868 -0.08796275 -0.11824334 0.0641676 0.0903344
-0.056682214 0.045958865 0.11735783 0.052133203 0.13439563 -0.05297262 -0.0811343 0.034602046
-0.024767116 0.019347722 -0.036806542 0.09237056 -0.06913172 0.0046984805 0.059118845 -0.09851947
0.07187405 -0.03881777 -0.0053512254 0.028351177 0.033023756 -0.028237808 -0.023618815 -0.04308103
-0.003498081 -0.013083645 0.0046338695 -0.016350366 -0.01623365 0.045521565 0.0006647159 0.03888433
