Assets/ML-Agents/platformBalance/models/1.0+0.5_0.1_brain2.onnx (onnx, 321473 bytes, 7 tensors)

action_model._continuous_distribution.log_sigma f4 [1, 2]
0	0x3e0d9759	0.13827266
1	0x3d2b53a5	0.041827817

action_model._continuous_distribution.mu.bias f4 [2]
0	0x3c0ae3b3	0.008477139
1	0x3b1bd674	0.0023778947

action_model._continuous_distribution.mu.weight f4 [2, 256]
0	0x3b5e1484	0.003388674
1	0xbc1276f4	-0.008939493
2	0xbb5cdc51	-0.0033700655
3	0xba9ddb43	-0.0012043494
4	0xba33f8ed	-0.0006865401
5	0xbb2b9ea7	-0.0026187093
6	0x3c29fd1f	0.01037529
7	0x3c1de10b	0.009636174
8	0x3c7606cc	0.015016269
9	0xbae96df5	-0.0017809259
10	0xbbae3bcd	-0.0053171874
11	0x3b050927	0.0020299645
12	0x3c01434e	0.007889582
13	0xbbbbbebd	-0.005729525
14	0xbc4ca495	-0.012490411
15	0xbb9800de	-0.0046387753
16	0xbc3a8944	-0.011385266
17	0x3c427120	0.011867791
18	0xbb2e9fb1	-0.0026645476
19	0x3c42662d	0.011865181
20	0xbccf22a3	-0.02528507
21	0xba11d678	-0.00055632694
22	0x3b4b19d8	0.0030990746
23	0xbb92d971	-0.0044814874
24	0xbc36121a	-0.011112714
25	0x3ab7a35f	0.001401048
26	0xbcae7bc9	-0.02129926
27	0x3b1d8f7e	0.0024041827
28	0xbbe2ea54	-0.0069249067
29	0xbc2f3423	-0.010693583
30	0x3c94275b	0.018085172
31	0x3c1363de	0.008995978
32	0xbc9a4268	-0.018830493
33	0xbc10bb7e	-0.008833764
34	0xbc693c96	-0.014235636
35	0xbc677d00	-0.014128923
36	0xbc48a6e8	-0.012246825
37	0x3bda3e1c	0.006660236
38	0xbcc24b67	-0.023717595
39	0xbca60daf	-0.020270197
40	0xbd1f83cf	-0.03894406
41	0x3bcc257d	0.006230055
42	0x3c1ffe26	0.009765184
43	0xbbf6648b	-0.00751931
44	0xbc5a9fd6	-0.013343772
45	0xbd1d47f1	-0.038398687
46	0x3bd70b29	0.0065626097
47	0x3c291ea7	0.0103222495
48	0xbce649fc	-0.02811145
49	0xbb8f5510	-0.004374154
50	0x3c31844f	0.0108347675
51	0x3cbfbfca	0.023406882
52	0xbbc3c03f	-0.0059738453
53	0x3b19ae7c	0.0023449948
54	0xbae9fd23	-0.001785193
55	0x3af2c82e	0.0018522793
56	0xbbcee8c6	-0.00631437
57	0xbc00f7a9	-0.007871547
58	0xbd60ac11	-0.054851595
59	0x3ca6f4d0	0.020380408
60	0x3bb26249	0.0054438454
61	0xbc905cb4	-0.01762233
62	0xbcfe60bb	-0.031051984
63	0x3c46a6c3	0.01212472
64	0x3b6b1ae1	0.0035874175
65	0x3c253ee6	0.010085797
66	0x3c93177e	0.017955538
67	0xbb5dcc5b	-0.003384373
68	0xbc809283	-0.015694862
69	0xbaf8b2ef	-0.0018974225
70	0xbca866f3	-0.020556903
71	0xbc4250c6	-0.011860078
72	0xbb9fda99	-0.004878354
73	0x3bb228be	0.0054369858
74	0xbc2c861c	-0.010530021
75	0xbbcd44a1	-0.0062642847
76	0xbca19bab	-0.019727549
77	0xba1b65dc	-0.0005927959
78	0xbd5776f5	-0.05260368
79	0x3c58db4f	0.013235881
80	0x3bb09b98	0.005389642
81	0x3bc6a1f6	0.0060617877
82	0xbaca480f	-0.0015432852
83	0xbd2eadba	-0.042646147
84	0x3ac10963	0.0014727529
85	0x3bd74623	0.0065696402
86	0xbc233dff	-0.0099635115
87	0xbc894eb5	-0.016761163
88	0xbb1f3195	-0.0024291028
89	0x3bfe8af3	0.007768029
90	0xbcab752c	-0.020929895
91	0xbb7a58b2	-0.003819984
92	0xbcd415a7	-0.02588923
93	0xbb19e7c9	-0.0023484102
94	0xbc08b017	-0.008342764
95	0xbadaf764	-0.0016705808
96	0xbb3873fe	-0.0028145309
97	0xb99b64ad	-0.00029638913
98	0x3b2db10d	0.0026503236
99	0xbb831ff6	-0.004001613
100	0xba1b684a	-0.0005928321
101	0x3c0045ab	0.00782911
102	0xbc07acc3	-0.008280936
103	0x3b39fd8e	0.002837989
104	0x3caa1c2c	0.020765387
105	0x3cd14326	0.025544714
106	0xbc773a86	-0.015089637
107	0xbc1b0f53	-0.009464103
108	0x3b99b790	0.004691072
109	0xbbe25245	-0.00690678
110	0x390a24f4	0.00013174472
111	0xbc1c0f6e	-0.009525163
112	0xbb890d9b	-0.00418253
113	0x3c600108	0.013672121
114	0x3c2886c7	0.01028604
115	0xbb8cf68e	-0.0043018525
116	0x3ad5eeed	0.0016321816
117	0x3b18dc67	0.002332473
118	0xbc2479f8	-0.010038845
119	0xbd0a1a62	-0.033716567
120	0xbcc9feb5	-0.024657587
121	0x3b7fdab3	0.0039040267
122	0xba9843d7	-0.0011616898
123	0xb937f197	-0.00017542239
124	0x3d3654ea	0.044514574
125	0xbb8a131d	-0.0042137043
126	0xbd512290	-0.051058352
127	0xbc552c83	-0.013011101
128	0x3c5d1c10	0.01349546
129	0xbca6d9ed	-0.020367587
130	0xbd432d95	-0.047650892
131	0x3b9b6137	0.0047418135
132	0xbb8e5a4f	-0.0043442617
133	0x3bff9b87	0.0078005227
134	0xbd127fd6	-0.035766445
135	0xbcb004af	-0.021486608
136	0xbad45ee5	-0.0016202597
137	0xbb8abe74	-0.0042341296
138	0xbccd5d1d	-0.025068814
139	0xbc65e5ee	-0.01403187
140	0xbd560222	-0.052248128
141	0xbbadae6c	-0.0053003337
142	0xbb87826a	-0.0041354196
143	0x3acea3da	0.0015765384
144	0xbb5c18b1	-0.0033584053
145	0x3afed2f8	0.0019441536
146	0xbc71f929	-0.014768877
147	0xbbb3435b	-0.005470676
148	0xbb484a76	-0.003056196
149	0xbc3c6b85	-0.011500244
150	0xbb301d79	-0.0026873036
151	0xbd47f933	-0.04882164
152	0xbc5aff75	-0.01336657
153	0x3ba7e776	0.005124028
154	0xbcdc7ff2	-0.026916478
155	0xbce52f02	-0.027976517
156	0xbca1450f	-0.01968625
157	0x3b7fd674	0.0039037736
158	0xbb982c96	-0.004643987
159	0xbd3e89f5	-0.046518285
160	0x3c49ee99	0.0123249525
161	0xbb78629f	-0.003790058
162	0x3a4d38bf	0.0007828585
163	0x3c9387be	0.018009063
164	0xbc2ebb28	-0.010664739
165	0xbc889e34	-0.016677
166	0xbbc277fc	-0.0059347134
167	0x3a9f9402	0.0012174847
168	0x38995652	7.311687e-05
169	0x3ae88bad	0.0017741822
170	0x3c11008d	0.008850229
171	0xbcce6567	-0.025194837
172	0x3bd17568	0.0063921697
173	0xbc29bc75	-0.010359873
174	0x3b03643f	0.0020048765
175	0xbcbe35c0	-0.02321899
176	0x3bb778ff	0.0055991407
177	0x3c4cff2f	0.012512012
178	0xbd2a50bc	-0.0415809
179	0x3a4ab7a2	0.0007733052
180	0xbbd7b2c1	-0.0065825884
181	0xbc074673	-0.0082565425
182	0x3b1e62af	0.0024167707
183	0x3cb2cdb8	0.02182661
184	0x3c38a47c	0.011269685
185	0xbb68bbec	-0.00355124
186	0xbba33940	-0.00498119
187	0xbd078766	-0.03308811
188	0xbc6ada8a	-0.01433433
189	0xbaa55006	-0.001261235
190	0xbbdfe44b	-0.0068326346
191	0xbb885d7e	-0.0041615358
192	0xbcf09b69	-0.02937098
193	0xbc93b18d	-0.018028999
194	0xbac39dac	-0.0014924309
195	0x3b6103f2	0.0034334627
196	0x3a3c33b1	0.00071793335
197	0xbcfd7688	-0.03094031
198	0x3b1f3390	0.0024292208
199	0xbaea4930	-0.0017874595
200	0xba9694ea	-0.0011488472
201	0x3bb2092c	0.0054332223
202	0xbb063abc	-0.0020481786
203	0xba8f8091	-0.001094835
204	0x3d0e4c0f	0.034740504
205	0xbc83607f	-0.016037224
206	0x3c0ea629	0.008706608
207	0x3b5a68ee	0.0033326703
208	0xbce1a0b8	-0.027542457
209	0xbba3e6ad	-0.005001864
210	0xbb07e648	-0.0020736624
211	0x3bb6c8e4	0.0055781472
212	0xbbdf4409	-0.0068135303
213	0xbc628786	-0.013826257
214	0x3b22a271	0.002481606
215	0xbc1f3942	-0.009718241
216	0xbcd059ca	-0.02543344
217	0xbc6ecaf3	-0.014574754
218	0xbc53d17a	-0.012928361
219	0xbcbf5a14	-0.023358382
220	0x3badffb2	0.0053100223
221	0xbaf01b0c	-0.0018318607
222	0x3cbf1031	0.02332315
223	0xb9a52429	-0.00031498194
224	0xbbb77999	-0.0055992124
225	0xba8ec6aa	-0.0010892947
226	0x3bdcd1df	0.006738886
227	0x3c2d1866	0.010564899
228	0x3ab985a1	0.0014154204
229	0xbc0d978d	-0.00864209
230	0x3b017288	0.0019752104
231	0x3c207da5	0.009795581
232	0x3d169529	0.036763344
233	0xbcea7171	-0.028618546
234	0xba9ec772	-0.0012113883
235	0xbcd522b1	-0.026017519
236	0x3aeb7432	0.0017963706
237	0xbbbe43a7	-0.0058064046
238	0xbbcfa9d5	-0.006337384
239	0xbaf47ed2	-0.0018653518
240	0xbb165433	-0.002293837
241	0xbc9a4ea3	-0.018836325
242	0xbc4f5618	-0.012654804
243	0xbc45b7a8	-0.012067713
244	0xbbb52134	-0.0055276398
245	0xb9e2a2c9	-0.00043227363
246	0x377c7746	1.5048141e-05
247	0xb9451d45	-0.00018798288
248	0xbd0a0580	-0.03369665
249	0x3b6c5adf	0.0036064906
250	0xbd0415e0	-0.032247424
251	0xbc4464dd	-0.011986938
252	0xbd33b3a1	-0.04387248
253	0xbaf4ae82	-0.001866773
254	0x3c7463c1	0.014916361
255	0xbd1345db	-0.03595529

network_body._body_endoder.seq_layers.0.bias f4 [256]
0	0xbad519b2	-0.0016258268
1	0xbd70881a	-0.058723547
2	0xbc4915bf	-0.012273251
3	0xbc176370	-0.009240016
4	0xa624b956	-5.7150107e-16
5	0xbbc13581	-0.0058962707
6	0xbd37f444	-0.044910684
7	0xbd0b7921	-0.034051064
8	0xbceee7ce	-0.029163267
9	0xbd35ad6b	-0.044354837
10	0x3a78903d	0.00094819424
11	0x3d00c0c1	0.031433824
12	0xbd0203b5	-0.031741817
13	0xbc938873	-0.0180094
14	0xbbbd95c0	-0.005785674
15	0xbd02d90e	-0.03194528
16	0xbbdeecf2	-0.0068031484
17	0xbc32b77d	-0.010908005
18	0xbb557f22	-0.0032576998
19	0xba2e7125	-0.0006654433
20	0x3cbb7e50	0.022887379
21	0xbb15c231	-0.0022851343
22	0x3d70dd6c	0.058804914
23	0xbcb622cf	-0.022233395
24	0xbb8740b3	-0.004127586
25	0xae5308b5	-4.798358e-11
26	0xbd1f5f7f	-0.03890943
27	0xbcae3ba1	-0.021268668
28	0xbbe75e66	-0.0070608137
29	0xbc8533b2	-0.016260002
30	0xbca7b0d4	-0.02047006
31	0x3b3b8fb9	0.00286196
32	0xbc44d1bc	-0.012012895
33	0xb96100f2	-0.00021458024
34	0xbcc8ec6a	-0.024526794
35	0xb82a7c22	-4.0646766e-05
36	0x3bde74d8	0.006788831
37	0xbbb1cb54	-0.00542585
38	0x3d4208cc	0.04737167
39	0x3a90e398	0.0011054156
40	0xbd2f0fbb	-0.04273961
41	0xbcb15d46	-0.021650922
42	0xbcd204c0	-0.02563703
43	0xbd0694f0	-0.03285688
44	0xbcdab361	-0.026696863
45	0xbc636caf	-0.013880893
46	0xbbf1a095	-0.007373879
47	0xbcfc9c9b	-0.030836394
48	0xbc97e598	-0.018542096
49	0xbc9da4a2	-0.019243542
50	0xbd47f91b	-0.04882155
51	0xbb9f3f2b	-0.004859825
52	0xbc2d40c2	-0.0105745215
53	0xbc96426b	-0.018342217
54	0x398d747b	0.000269804
55	0xbb85b6fa	-0.0040806504
56	0xbd08a641	-0.033361677
57	0x3a6ca50d	0.000902728
58	0xbc87ec52	-0.016592178
59	0xbced8b32	-0.028997038
60	0xbc858f3a	-0.016303647
61	0xbba35b9f	-0.0049852873
62	0xbd0cf47b	-0.034412842
63	0xbcc9ac73	-0.024618363
64	0xbbc3a95a	-0.005971116
65	0xbcf1eda2	-0.029532257
66	0xbd00f939	-0.031487677
67	0xbcc154af	-0.02359995
68	0xbcfe6564	-0.031054206
69	0xbc9c1578	-0.019053206
70	0xbc0b012a	-0.008484164
71	0xbc7de1e7	-0.015495754
72	0xbc2457b8	-0.010030679
73	0xbcd8a633	-0.026446437
74	0xbcadc856	-0.021213692
75	0xbcec043a	-0.02881061
76	0xbc30b18e	-0.01078452
77	0xbc565f9a	-0.013084317
78	0xb7cf0e7f	-2.4683073e-05
79	0xbbbde78a	-0.005795424
80	0xbbbca83e	-0.0057573607
81	0xbc1c7964	-0.009550426
82	0xbcc8f435	-0.02453051
83	0xbc8309ed	-0.015995944
84	0xbc7ba7ab	-0.015359799
85	0x3acaa085	0.0015459216
86	0x3af210ce	0.0018468143
87	0xbc4b8bfa	-0.01242351
88	0xbcfbf14a	-0.030754704
89	0xb06b9c0f	-8.5714275e-10
90	0xbc5fdd2f	-0.013663574
91	0xbc87e256	-0.016587418
92	0x3cd4d4fb	0.025980463
93	0x3c390276	0.011292091
94	0xbbb43193	-0.005499074
95	0xbc055008	-0.008136757
96	0xbc24eecd	-0.0100667
97	0xbc8de276	-0.017319899
98	0xbc046d6e	-0.008082731
99	0xbb89c4f1	-0.0042043854
100	0xbc916afe	-0.017751213
101	0xb7dd5ccd	-2.6388467e-05
102	0xbba4dee6	-0.0050314544
103	0xbd12784c	-0.035759255
104	0xbc857fce	-0.016296294
105	0xbb5fa581	-0.0034125748
106	0xbc634738	-0.01387196
107	0xbc5fdb40	-0.013663113
108	0x3d4a112c	0.049332783
109	0xbc21662a	-0.009851018
110	0xbcf419d2	-0.029797468
111	0xbcfdc711	-0.030978711
112	0xbc934d71	-0.017981263
113	0xbcd0dcb7	-0.02549587
114	0xbbecc357	-0.0072254348
115	0xbcb1972b	-0.021678528
116	0x35d00858	1.5499636e-06
117	0x3b87c9c8	0.0041439272
118	0xbb733789	-0.003711196
119	0xbba2039a	-0.004944277
120	0xbc9a9139	-0.018868076
121	0xbbbd7db0	-0.0057828054
122	0xbbb0290f	-0.0053759883
123	0x3990abb2	0.00027593743
124	0xb4b40bd6	-3.3536224e-07
125	0xbc3e8e9a	-0.011630679
126	0xbce292fa	-0.027657975
127	0xbca3d4be	-0.019998904
128	0xbcbf4126	-0.023346495
129	0xbd466c89	-0.04844335
130	0xbc7eaa1c	-0.015543487
131	0xbc0b3279	-0.00849592
132	0xbc3ddc8a	-0.011588225
133	0xbc6bc3a9	-0.014389911
134	0xba106850	-0.0005508708
135	0xbcd0084f	-0.025394587
136	0x3aa87103	0.0012851063
137	0xbd018516	-0.03162106
138	0xbc096e65	-0.0083881365
139	0xbc12d2df	-0.008961408
140	0xbbc952ac	-0.0061438885
141	0xbb4b65a9	-0.0031035936
142	0x3c74bb19	0.014937186
143	0xbcee8127	-0.029114319
144	0xb9c5d616	-0.00037734275
145	0xb635f131	-2.7111494e-06
146	0xbb8d22c2	-0.004307122
147	0xbc603326	-0.01368407
148	0xba2c169f	-0.000656465
149	0xbcb100e3	-0.021606868
150	0x374b108d	1.2103596e-05
151	0xbbf0b336	-0.0073455824
152	0xbc89eb56	-0.01683585
153	0xbc24a03c	-0.0100479685
154	0xbc770ada	-0.015078271
155	0xbc2c28de	-0.01050779
156	0xbc586716	-0.013208171
157	0x3d823729	0.06358177
158	0xbbd41609	-0.0064723534
159	0xbc515712	-0.012777107
160	0xbd1bb83d	-0.0380175
161	0xbc403618	-0.011731647
162	0xbc53915d	-0.012913075
163	0xbb49f0b3	-0.0030813634
164	0x39d22127	0.00040079022
165	0xbbb9fa18	-0.0056755655
166	0x3b7b4d0f	0.003834549
167	0xbc33eb7e	-0.010981439
168	0xbc5df960	-0.013548225
169	0xbcabd72e	-0.02097663
170	0xbc3d9325	-0.0115707265
171	0xbc209ee8	-0.009803511
172	0xbbca943d	-0.006182222
173	0xbc4e3f79	-0.012588375
174	0xbc658640	-0.0140090585
175	0xbd28c902	-0.04120732
176	0xbce72b28	-0.02821882
177	0xbbec05c8	-0.0072028376
178	0xbc4e4e50	-0.012591913
179	0xbc6ad857	-0.014333806
180	0xbd55f030	-0.052231014
181	0xbca4c3ca	-0.02011289
182	0xbbe67dad	-0.0070340247
183	0xbd04ef81	-0.03245497
184	0xbc570c49	-0.013125488
185	0xb6671e3a	-3.4439277e-06
186	0xbc6556fc	-0.0139977895
187	0xbc3a5cc5	-0.011374657
188	0x3d1228d1	0.035683457
189	0xbc0701ae	-0.008240147
190	0xbce87972	-0.028378222
191	0x3bdd876b	0.006760528
192	0xbc3be851	-0.011468963
193	0xbc557865	-0.013029193
194	0xbd014f07	-0.031569507
195	0x39e0365e	0.00042765116
196	0xbc8e214a	-0.017349858
197	0xbcb83335	-0.022485355
198	0x3d8ad4e6	0.067788884
199	0xbc173716	-0.009229442
200	0xbc2f1125	-0.01068524
201	0x389962d8	7.3140196e-05
202	0xbcfaf0ea	-0.030632455
203	0xbc8e5625	-0.017375061
204	0x3d77f71f	0.060538407
205	0xbc35b0dc	-0.01108953
206	0xbcf716d5	-0.030162254
207	0x3c48743d	0.012234745
208	0xbc8165f9	-0.015795695
209	0xbcb4f4e9	-0.022089439
210	0xbc2265ba	-0.009911949
211	0xbcca543e	-0.024698373
212	0xbb0ff7c6	-0.0021967753
213	0xbb5fe9d7	-0.003416648
214	0xbcf29fc3	-0.029617196
215	0xbcb2e25c	-0.021836452
216	0xbb12d675	-0.0022405658
217	0x3b49a1f7	0.0030766705
218	0xbcae6c4a	-0.02129187
219	0xbcc9d962	-0.024639789
220	0xbcd45b66	-0.025922488
221	0xbcba7276	-0.022759657
222	0xbd1db3cd	-0.03850155
223	0xbc578ebb	-0.013156588
224	0xbbb8f098	-0.0056439154
225	0xbb4534c9	-0.0030091277
226	0xbb7266f9	-0.0036987646
227	0x3d6eb8fa	0.058281876
228	0xbbcb58c3	-0.0062056496
229	0xbb988ffb	-0.0046558357
230	0xbcc80bbe	-0.024419662
231	0xbd1e097a	-0.038583256
232	0xbc4e192f	-0.012579246
233	0x3ab90a07	0.0014117368
234	0xbc24c989	-0.010057815
235	0xbc81df89	-0.01585366
236	0xbcebd45b	-0.028787782
237	0xbb4796be	-0.003045484
238	0xbc6a3ece	-0.0142972
239	0xbcce175e	-0.025157627
240	0x3d686190	0.056733668
241	0xbd048cf3	-0.032360982
242	0x39b6d352	0.0003487119
243	0xba9db383	-0.0012031648
244	0xbcb275a8	-0.021784618
245	0x3d66e13f	0.056367155
246	0xbc9ea24f	-0.019364504
247	0xbc9415f4	-0.018076874
248	0xbd034ab0	-0.03205365
249	0xbc550cf4	-0.013003577
250	0x338f92f0	6.685684e-08
251	0xbd026ddf	-0.031843062
252	0xbbc9930a	-0.0061515616
253	0x3d22bd6f	0.03973144
254	0xbcd829dd	-0.02638715
255	0xbd02706b	-0.03184549

network_body._body_endoder.seq_layers.0.weight f4 [256, 52]
0	0xbe067293	-0.13129644
1	0xbd282f36	-0.04106065
2	0x3dfa8670	0.12232673
3	0xbe7254a2	-0.23665097
4	0xbde2b67d	-0.11069963
5	0x3e7e1bbc	0.24815267
6	0xbdc8ed27	-0.09810858
7	0xbb68bfd2	-0.0035514724
8	0xbdc3167b	-0.09525772
9	0x3c8dbc08	0.017301574
10	0xbc8c1ef4	-0.017104603
11	0x3c8c794b	0.01714768
12	0xbd1e9a03	-0.038721096
13	0xbc976b7e	-0.018483873
14	0xbe4d9f07	-0.20080195
15	0x3e2a8814	0.16653472
16	0x3d4a5c3b	0.049404364
17	0x3e35f8d8	0.17770708
18	0x3ce64aba	0.028111804
19	0xba3681f3	-0.0006962113
20	0x3c47d4f6	0.01219677
21	0xbd0e9104	-0.034806266
22	0x3c8c70a1	0.01714355
23	0xbddbc597	-0.10731047
24	0x3e478dd8	0.19487703
25	0xbe5d0f48	-0.2158786
26	0xbdc4e40e	-0.096138105
27	0xbd8e7939	-0.06956715
28	0x3e286440	0.16444492
29	0xbeabee72	-0.33580357
30	0xbe14526e	-0.1448457
31	0x3e7911fb	0.24323265
32	0x3a0e64e6	0.0005431905
33	0x3dd33946	0.103136584
34	0x3d3dea60	0.046366096
35	0xbd2b131c	-0.04176627
36	0xbddce6c4	-0.107862025
37	0xbdaea715	-0.08527962
38	0xbe240e12	-0.16020992
39	0x3d9e8684	0.077405006
40	0xbca24e9c	-0.019812874
41	0x3ce55281	0.027993442
42	0x3e9239bb	0.2855967
43	0xbdf26af5	-0.11836807
44	0x3d672b11	0.056437556
45	0x3db98e94	0.09060398
46	0xbd8fb313	-0.070165776
47	0x3d063992	0.032769747
48	0xbdd73a51	-0.1050917
49	0xbe5dd633	-0.21663742
50	0xbd896d91	-0.06710351
51	0xbebd2158	-0.36939502
52	0x3d65041b	0.05591212
53	0x3d0f7268	0.035021216
54	0x3d3f5ba6	0.046718262
55	0x3e470bf3	0.19438152
56	0x3e164f18	0.1467861
57	0x3e7eb277	0.24872766
58	0x3d0f9438	0.03505346
59	0x3ca0e03c	0.019638173
60	0x3cda328d	0.026635433
61	0x3d64aba2	0.055827744
62	0xbe640dd9	-0.22270907
63	0x3dd3f4a6	0.10349397
64	0xbd251b93	-0.0403095
65	0x3d105ca9	0.035244618
66	0x3bed6100	0.0072442293
67	0xbd6d8f9b	-0.05799828
68	0xbd913646	-0.0709043
69	0x3e17fcaf	0.14842485
70	0xbe148b83	-0.14506344
71	0xbdf28168	-0.118410885
72	0xbeaf3dcf	-0.34226844
73	0xbdf49e46	-0.11944251
74	0x3e4fca04	0.20291907
75	0xbe0672b1	-0.13129689
76	0x3e4382ca	0.19092861
77	0xbd273640	-0.04082322
78	0xbce8ebdc	-0.028432779
79	0x3d81f16a	0.06344874
80	0x3c62dd82	0.013846757
81	0x3e62ff48	0.22167695
82	0x3db34384	0.08753112
83	0x3dd08b7f	0.10182857
84	0x3cb094a6	0.021555256
85	0x3cad57c4	0.021160014
86	0xbdf166db	-0.11787196
87	0x3e71339d	0.23554845
88	0x3c676005	0.014122014
89	0x3d7e7cce	0.06213074
90	0xbc4c08b7	-0.01245325
91	0xbcb1cf62	-0.021705333
92	0x3ce0e403	0.027452474
93	0xbdb58e72	-0.0886506
94	0x3cd60f1d	0.026130253
95	0xbe8ea322	-0.27858835
96	0xbe4c7e7c	-0.19970125
97	0xbe254e34	-0.16143113
98	0xbe8490b4	-0.2589165
99	0xbb69296f	-0.0035577675
100	0x3e57af71	0.2106302
101	0x3c140df2	0.009036528
102	0xbe862f9b	-0.26208195
103	0x3dd7b202	0.10531999
104	0xbdd0391d	-0.101671435
105	0x3d9c5b39	0.07634587
106	0x3e1d2220	0.15345049
107	0xbe046969	-0.12930836
108	0x3d01f3a7	0.031726506
109	0x3e6a2829	0.22866882
110	0x3e47b03e	0.19500825
111	0xbc087589	-0.008328804
112	0xbe485a99	-0.1956581
113	0x3d8c6940	0.06856012
114	0x3df7529b	0.120763026
115	0x3d0d7a97	0.03454074
116	0xbe02b7e5	-0.12765463
117	0xbd86c09d	-0.06579707
118	0xbe1757d3	-0.14779596
119	0xbe2c5634	-0.16829759
120	0x3da0814a	0.0783716
121	0xbe06c797	-0.13162075
122	0x3dfa4865	0.122208394
123	0xbdfa31c5	-0.12216524
124	0x3d73b33b	0.0594971
125	0xbe52e5ae	-0.20595428
126	0xbd855490	-0.0651027
127	0xbe0b7ddd	-0.13622232
128	0x3cf305fb	0.029665938
129	0x3db4c8a7	0.08827334
130	0xbdf1ad56	-0.11800639
131	0x3da46d15	0.08028618
132	0x3e77d757	0.2420324
133	0x3d5c4210	0.05377394
134	0xbd9f91a9	-0.07791454
135	0x3e612dd4	0.21990138
136	0x3dd9989c	0.10624811
137	0xba6bd688	-0.0008996506
138	0xbd8534b7	-0.06504195
139	0xbdb4ae40	-0.08822298
140	0x3d72d342	0.059283502
141	0xbe15168d	-0.14559384
142	0x3daf2da6	0.085536286
143	0x3cd1e16e	0.025620189
144	0xbc347acb	-0.011015604
145	0x3c889a72	0.016675208
146	0xbe1fc966	-0.15604171
147	0x3da091cf	0.07840311
148	0x3cb373c4	0.021905787
149	0xbe040a38	-0.12894523
150	0x3d969a1d	0.073536135
151	0x3caaa430	0.020830244
152	0xbb126347	-0.0022337006
153	0x3e201917	0.15634571
154	0x3e054633	0.1301506
155	0x3df071c0	0.11740446
156	0xbcde3940	-0.027126908
157	0x3e7d184f	0.24716304
158	0xbeab6420	-0.33474827
159	0xbd8fcd5a	-0.070215896
160	0xbdba9247	-0.091099314
161	0xbd89d099	-0.0672924
162	0x3c9bffb1	0.019042822
163	0x3d82ba52	0.06383194
164	0x3e04271b	0.12905543
165	0x3e6b990a	0.23007599
166	0x3c7cd8ff	0.015432595
167	0xbd0038cd	-0.03130417
168	0x3bbaac3e	0.0056968024
169	0xbe29bc25	-0.16575678
170	0xbd7ab1a5	-0.06120457
171	0x3e0dcaeb	0.13846938
172	0xbe0a99e9	-0.13535275
173	0x3d96bbd4	0.07360044
174	0xbc9aaabd	-0.018880242
175	0x3cd6708b	0.026176712
176	0x3d3c006a	0.045898832
177	0x3c291fa6	0.010322487
178	0xbd98c835	-0.074600615
179	0xbc6e5ef0	-0.014549002
180	0x3b34add5	0.0027569432
181	0xbda56753	-0.08076348
182	0xbe52752c	-0.2055251
183	0x3de9abac	0.11409697
184	0xbcd50587	-0.026003612
185	0x3e05863c	0.13039488
186	0xbdb72e98	-0.08944434
187	0xbe1c609d	-0.1527123
188	0xbe338f2b	-0.17535083
189	0xbe1f4224	-0.15552574
190	0xbde21b4a	-0.11040361
191	0xbd5feb6e	-0.054667883
192	0xbe2cd420	-0.16877794
193	0xbdfdcc07	-0.12392431
194	0xbd00c275	-0.03143545
195	0xbe09b1b8	-0.134467
196	0x3e1f1aae	0.15537521
197	0xbe4b2bc3	-0.19840913
198	0xbe90759d	-0.28214732
199	0x3e003af4	0.12522489
200	0xbe3abbb8	-0.18235672
201	0x3d5b4fa3	0.053542744
202	0x3e147c07	0.14500438
203	0x3c7cddd4	0.015433747
204	0xbdac2c0d	-0.084068395
205	0x3dad503a	0.084625676
206	0x3a9dd59e	0.0012041812
207	0xbe4c5569	-0.19954456
208	0x3def135a	0.11673613
209	0x3d2a2f4e	0.04154902
210	0xbc6323c1	-0.013863505
211	0x3e5636bb	0.20919316
212	0xbca0cad3	-0.019627964
213	0xbd861168	-0.06546289
214	0xbe3037e7	-0.17208825
215	0x3d289113	0.04115398
216	0xbd5118db	-0.051049095
217	0xbe5f1ef9	-0.21789159
218	0x3e809bf9	0.25118998
219	0x3b8fbaa8	0.004386265
220	0xbdbe21a8	-0.09283763
221	0x3d0175c5	0.031606454
222	0xbd9d133b	-0.076696835
223	0xbdb9f203	-0.09079363
224	0xbe86ce61	-0.2632933
225	0x3e087355	0.13325246
226	0xbd38183a	-0.04494498
227	0xbdd344d3	-0.103158616
228	0xbdc724ff	-0.09723853
229	0x3d97a83e	0.074051365
230	0x3e20494c	0.1565296
231	0x3e011ffb	0.12609856
232	0x3d934f4e	0.071928605
233	0xbd9de6d9	-0.07710046
234	0xbd44e90b	-0.04807381
235	0xbd93b81e	-0.07212852
236	0x3d01a810	0.031654418
237	0xbcf49d48	-0.029860154
238	0x3e2da4cb	0.16957395
239	0xbcad5257	-0.021157427
240	0xbdea4825	-0.11439542
241	0xbe281a4b	-0.1641628
242	0xbd4f03e4	-0.05054082
243	0xbeafc78f	-0.3433194
244	0x3e0aae68	0.13543093
245	0x3e10d933	0.14145355
246	0xbde5ba56	-0.112171814
247	0xbde6fe4f	-0.11278974
248	0x3ecd20df	0.4006414
249	0xbe11327c	-0.14179415
250	0xbbe84319	-0.007088077
251	0xbe783108	-0.24237454
252	0xbd03d66e	-0.032186918
253	0x3b963740	0.004584223
254	0xbb878395	-0.004135559
255	0xbd6ff5b1	-0.05858392

network_body._body_endoder.seq_layers.2.bias f4 [256]
0	0xbc80a443	-0.015703326
1	0xbc4fe0b9	-0.012687855
2	0xbc2123a5	-0.0098351585
3	0xbc493026	-0.012279546
4	0xbcb10b20	-0.02161175
5	0xbc443a90	-0.011976853
6	0x39af15fd	0.00033394984
7	0x3c8a5d5c	0.01689022
8	0xbb704ae0	-0.0036665723
9	0xbc6780dc	-0.014129844
10	0xbc934809	-0.017978685
11	0xbc337134	-0.010952283
12	0xbc633ee3	-0.013869974
13	0xbb8cc9ad	-0.0042965026
14	0xbb27ffe9	-0.0025634712
15	0xba539430	-0.0008071093
16	0xbc667f47	-0.014068431
17	0xbc2b7208	-0.010464199
18	0xbc107613	-0.008817214
19	0xbc01d18d	-0.007923496
20	0xbc625fff	-0.013816833
21	0xbc798149	-0.015228578
22	0xbc8b2f70	-0.016990393
23	0xbc1b39cb	-0.009474228
24	0xbbd02349	-0.0063518626
25	0x397f0045	0.00024318795
26	0x3b2f50ef	0.002675112
27	0xbc4895db	-0.01224276
28	0xbc2cac30	-0.0105391
29	0xbc790ef8	-0.015201323
30	0xbb1d7578	-0.0024026316
31	0xbc282c21	-0.010264427
32	0xbc3d3367	-0.0115479
33	0xbc64dbcf	-0.013968422
34	0xbb8226e6	-0.003971922
35	0xbc3bf00d	-0.011470807
36	0xbc5581ec	-0.013031464
37	0xb920c4db	-0.00015332123
38	0x3ccc5931	0.024944874
39	0xbc4b5283	-0.012409809
40	0x3d1760fe	0.036957733
41	0xbc72317a	-0.014782304
42	0xbc4bb28c	-0.012432706
43	0xbb8f727c	-0.0043776613
44	0xbb96c7d8	-0.00460146
45	0x3cbe9a03	0.023266798
46	0xbc97094f	-0.018437056
47	0xbbbe0d84	-0.005799951
48	0xbaa2bb06	-0.0012415356
49	0xbc680585	-0.014161472
50	0x3c38bcd4	0.011275489
51	0x3c549ca6	0.012976801
52	0xbc8712da	-0.016488481
53	0xbbd31739	-0.0064419773
54	0x3ad9770d	0.0016591266
55	0xbc31185c	-0.01080903
56	0xbc964887	-0.01834513
57	0xbc6bf2d0	-0.014401153
58	0xba2a0434	-0.00064856117
59	0xbc535238	-0.01289802
60	0xbbffed46	-0.0078102676
61	0x3aaa640e	0.0012999789
62	0xbc259f7e	-0.010108827
63	0xbab651f8	-0.0013909927
64	0xbc0f19a3	-0.00873414
65	0x3c288e56	0.010287842
66	0xbc22d757	-0.009939036
67	0xbc3d3b0f	-0.011549725
68	0xbbde6f02	-0.0067881355
69	0xbc69bf51	-0.014266805
70	0xbb82a47f	-0.0039868946
71	0xbc367332	-0.011135863
72	0xbc57bb76	-0.013167253
73	0xbc00c5ec	-0.007859688
74	0xbc48c270	-0.012253389
75	0xbc02c715	-0.007982035
76	0x3baf7342	0.005354316
77	0xbc780420	-0.015137702
78	0xbc35d960	-0.0110991895
79	0xbca41da5	-0.020033667
80	0xbc4251af	-0.011860295
81	0xbc171951	-0.0092223445
82	0xbc8f36df	-0.01748222
83	0xbc739443	-0.014866891
84	0x3b626625	0.0034545746
85	0xbc0718d3	-0.008245665
86	0xbb864eb5	-0.004098738
87	0x3b326969	0.0027223474
88	0xbc258ce7	-0.0101043945
89	0xbbfa0533	-0.0076300143
90	0xbc561826	-0.013067281
91	0xbc67a1c5	-0.01413769
92	0xbb7ef3cd	-0.003890264
93	0xbc1fad79	-0.009745949
94	0xbba3a4fe	-0.004994034
95	0xbc125711	-0.008931891
96	0xbc0b061c	-0.008485343
97	0xbc97914d	-0.018501902
98	0x3bfb12a2	0.0076621333
99	0xbc999c28	-0.018751219
100	0xbc0ac710	-0.008470312
101	0xbc0243f4	-0.007950772
102	0xbc66e665	-0.014093016
103	0xbc517af0	-0.012785658
104	0xbc1e018d	-0.009643924
105	0x3c61f933	0.013792324
106	0xbb8a7968	-0.0042258985
107	0xbc06da39	-0.008230739
108	0xbbf19c83	-0.007373394
109	0xbbefbaf7	-0.007315989
110	0xbc2480cd	-0.010040474
111	0xbc83a43f	-0.01606953
112	0xbc81ead9	-0.015859054
113	0xbbf4dced	-0.0074726255
114	0xbc98e903	-0.018665796
115	0xbc416625	-0.011804138
116	0xbc61ca29	-0.013781109
117	0xbb901d96	-0.004398058
118	0xbc5063d7	-0.012719116
119	0x3bf8c75d	0.0075921253
120	0xbc389d9b	-0.011268045
121	0x3c525359	0.012837254
122	0xbc2132a1	-0.009838731
123	0xbb82c657	-0.003990929
124	0xbc1c986b	-0.009557824
125	0xbc1a09d8	-0.009401761
126	0xbc03a60c	-0.008035194
127	0xbbe0a728	-0.006855864
128	0xbbb5de67	-0.005550194
129	0x3a462fd5	0.0007560228
130	0xbb2df08e	-0.0026541087
131	0xbc7076ec	-0.014676791
132	0x3b6a9d3a	0.003579928
133	0xbc12e727	-0.008966244
134	0x3ce13a17	0.02749352
135	0xbc1cab8f	-0.009562387
136	0xbc6dc6b9	-0.014512711
137	0xbc711bde	-0.014716117
138	0x3cf77077	0.030204995
139	0xbc45c42a	-0.012070695
140	0x3c2007bc	0.009767469
141	0x3b6171ec	0.0034400178
142	0x3bd9a1e9	0.0066416156
143	0xbb229a2a	-0.0024811127
144	0xbce88263	-0.028382486
145	0xbb8247a5	-0.003975826
146	0x3a7086c1	0.00091753533
147	0xbbd83bad	-0.006598911
148	0xbc88fe46	-0.01672281
149	0xbc351c9e	-0.011054186
150	0xbc3afa07	-0.01141215
151	0xbc7dfb96	-0.015501877
152	0xbc17bcb8	-0.009261303
153	0xbc8e8720	-0.017398417
154	0x3c235c50	0.0099707395
155	0x3cae2224	0.021256514
156	0xbc24f4a5	-0.010068093
157	0x3b882e4f	0.004155911
158	0xbc3d43d8	-0.01155182
159	0xbc33b64b	-0.010968755
160	0xbc4a576e	-0.012349946
161	0xbc04a9c7	-0.008097119
162	0xbc3e0fd8	-0.011600457
163	0xbbb811d6	-0.0056173606
164	0x3c29ad6b	0.0103562875
165	0xbc0e8bbe	-0.008700309
166	0xbc4c0d41	-0.012454332
167	0xbc07faf2	-0.008299576
168	0xbc4c4e42	-0.01246983
169	0xbc91df3b	-0.01780664
170	0xbc50047c	-0.012696382
171	0x3bc2820f	0.0059359143
172	0xbc61db59	-0.013785207
173	0xbc68eb2d	-0.0142162265
174	0xbbdf6913	-0.0068179457
175	0x3ba581be	0.005050867
176	0xbc47c927	-0.012193955
177	0x3b7093b9	0.0036709143
178	0xbc448cc6	-0.011996454
179	0xbc78e349	-0.015190908
180	0xbc075350	-0.008259609
181	0xbbedb18c	-0.0072538313
182	0xbc1a0c39	-0.009402328
183	0x3cafd7db	0.021465233
184	0xbc570838	-0.013124518
185	0xbc24daed	-0.010061962
186	0xbc7d5bde	-0.015463797
187	0x3cd045ca	0.025423903
188	0xbbe874ce	-0.0070940023
189	0xbcac3f16	-0.021026175
190	0x3a64a047	0.0008721393
191	0xbccea616	-0.02522568
192	0xbc49bcc7	-0.012313074
193	0xbc1911ee	-0.009342654
194	0xbc3aa62c	-0.0113921575
195	0xbcb82aa5	-0.022481272
196	0xbc999054	-0.018745579
197	0x3d11e4bf	0.03561854
198	0xbc3a114d	-0.011356664
199	0xbc07887c	-0.0082722865
200	0xbcb0b522	-0.021570746
201	0xbbf9a813	-0.007618913
202	0xbc81776f	-0.01580402
203	0xbc8418e3	-0.016125148
204	0xbb9eb1b1	-0.00484296
205	0xbc257c66	-0.01010046
206	0xbb01ca00	-0.001980424
207	0xbc01f9db	-0.007933105
208	0x3cd031d8	0.025414392
209	0xbc028667	-0.007966614
210	0xbc7d58c9	-0.015463063
211	0xb9929143	-0.00027955518
212	0xbc8de87b	-0.01732277
213	0x3b009288	0.001961859
214	0xbbe1da0b	-0.006892448
215	0xbbcc591a	-0.0062362077
216	0x3ba9bd3e	0.00518003
217	0xbc560066	-0.013061618
218	0x3afac271	0.0019131434
219	0x3b57839a	0.0032884837
220	0xbb9e7d44	-0.00483671
221	0xbc1ae8ce	-0.009454919
222	0xbc0c0ae2	-0.008547517
223	0xbc110725	-0.008851801
224	0x3bace629	0.0052764607
225	0xbbb4ef6c	-0.0055217054
226	0xbbc23bb8	-0.005927529
227	0xb99c07dd	-0.00029760497
228	0xbc7c6e8a	-0.015407214
229	0xbc3150ac	-0.010822456
230	0xbc34f975	-0.011045803
231	0xbc2a5c62	-0.010398002
232	0xbc84f679	-0.016230809
233	0xbb25f495	-0.0025322784
234	0x3b139241	0.0022517594
235	0xbc298e22	-0.0103488285
236	0x3b685c47	0.0035455392
237	0xbc33bb04	-0.010969881
238	0xbbc009a9	-0.0058605266
239	0xbb3cd4e0	-0.0028813407
240	0xbc16d5f5	-0.009206285
241	0xbc1315fa	-0.008977408
242	0xbbce350e	-0.0062929457
243	0xbbf2d5be	-0.007410734
244	0xbc72943e	-0.0148058515
245	0xbb30ce79	-0.0026978536
246	0xbc3cc408	-0.011521347
247	0xbc1ae89a	-0.009454871
248	0xbbc1c0be	-0.0059128692
249	0xbbbf7cc5	-0.005843731
250	0x3d0233a4	0.03178753
251	0xbaf01e68	-0.0018319609
252	0xbc3331bb	-0.01093715
253	0xbbd83b15	-0.00659884
254	0xbc145ab2	-0.009054827
255	0x3d0582f3	0.032595586

network_body._body_endoder.seq_layers.2.weight f4 [256, 256]
0	0x3ceded42	0.029043797
1	0xbdc15996	-0.09440915
2	0xbe286485	-0.16444595
3	0xbdb5001e	-0.08837913
4	0x3cf56e82	0.02995992
5	0x3d0f0649	0.034918103
6	0xbd04ac1b	-0.032390695
7	0xbd32463e	-0.04352402
8	0xbdc34812	-0.09535231
9	0xbcacce6f	-0.021094529
10	0x3def531c	0.11685774
11	0xbd814f77	-0.06313985
12	0xbd4237b5	-0.047416408
13	0xbda927e2	-0.0825956
14	0xbd2944d2	-0.041325398
15	0x3dfd0b20	0.123556376
16	0xbcdb9f39	-0.026809322
17	0x3dcc5ff2	0.099792376
18	0xbc11bf2a	-0.008895675
19	0xbd55e0ba	-0.05221627
20	0x3d8377f2	0.06419362
21	0xbd8c4d02	-0.068506256
22	0x3d96e5e4	0.07368067
23	0x3c8991a0	0.016793072
24	0xb994dca6	-0.00028393156
25	0x3e08d358	0.13361871
26	0xbde15e59	-0.110043235
27	0x3d994c58	0.074852645
28	0x3d1ac4e0	0.03778541
29	0xbe1f99a2	-0.1558595
30	0xbd75e43e	-0.06003212
31	0x3cc0eabc	0.02354943
32	0xbd2ed41b	-0.04268275
33	0xbdacd148	-0.08438355
34	0xbd0d1235	-0.03444119
35	0xbdaad97e	-0.083422646
36	0x3d984080	0.074341774
37	0x3d94b264	0.07260588
38	0xbd80e3f1	-0.062934764
39	0xbd9fdf81	-0.07806302
40	0xbd3ef871	-0.04662365
41	0xbdd2723f	-0.10275697
42	0xbd32af8d	-0.04362445
43	0xbd3d5efc	-0.046233162
44	0x3da382ee	0.07983957
45	0xbe107b6e	-0.14109585
46	0x3e3201fe	0.17383572
47	0x3d36cfd5	0.044631798
48	0x3c32b241	0.010906757
49	0xbd247c72	-0.040157743
50	0x3cd3f816	0.025875133
51	0xbd248edd	-0.040175308
52	0x3dc07a6f	0.09398352
53	0xbd9a239b	-0.075263225
54	0xbd05585b	-0.032554965
55	0xbd269f01	-0.04067898
56	0xbbe1a257	-0.0068858075
57	0xbd9519a4	-0.07280281
58	0xbd076f9e	-0.03306543
59	0x3db5b18f	0.08871757
60	0x3d43216f	0.047639307
61	0xb9a8dc23	-0.00032207472
62	0xbc203260	-0.009777635
63	0xbc98e041	-0.01866162
64	0x3b639c96	0.0034730784
65	0x3d132724	0.035926
66	0x3d81c43c	0.06336257
67	0x3dace9a3	0.08443
68	0xbd14fb99	-0.036372755
69	0x3c66a927	0.014078415
70	0xbc4487fd	-0.011995313
71	0xbd4412ab	-0.047869366
72	0x3d629293	0.055315565
73	0xbdafe989	-0.08589465
74	0xbd960d92	-0.07326807
75	0xbd29908a	-0.04139761
76	0x3ce3c155	0.027802149
77	0xbd3c6e00	-0.04600334
78	0xbd86b883	-0.065781616
79	0x3dc376d4	0.09544149
80	0xbd9478ab	-0.07249578
81	0xbdf45258	-0.11929768
82	0x3d345805	0.044029254
83	0x3bbd04d8	0.0057683997
84	0x3ceea14b	0.029129645
85	0xbb060cc6	-0.002045439
86	0x3d1d71b0	0.0384385
87	0x3e0b6a7c	0.1361484
88	0x3d068c3f	0.032848593
89	0x3d46a02c	0.048492596
90	0x3d93d19f	0.072177164
91	0xbcc0bcbf	-0.023527501
92	0xbdf09200	-0.11746597
93	0xbd0e1be6	-0.034694575
94	0x3c0f0789	0.008729824
95	0x3c0fee79	0.008784884
96	0x3dbe3294	0.09286991
97	0xbbc79261	-0.006090448
98	0xbc39100c	-0.01129533
99	0x3b17d968	0.0023170356
100	0xbd6ce89a	-0.057839014
101	0xbab61fff	-0.0013895034
102	0xbdf72adb	-0.12068721
103	0x3d0b65ac	0.03403251
104	0x3d0c549e	0.034260385
105	0xbe06a833	-0.131501
106	0x3d8aad39	0.06771321
107	0x3dba54d3	0.0909821
108	0xbd1d7b57	-0.038447704
109	0xbdfa8ad9	-0.12233514
110	0x3daa93ba	0.08328958
111	0x3c3e487d	0.011613962
112	0xbb183a50	-0.0023228116
113	0xbd92c6f2	-0.07166852
114	0x3b7f79f0	0.0038982593
115	0xba96f276	-0.0011516351
116	0x3d01ee33	0.031721305
117	0x3d94c386	0.07263856
118	0x3d683561	0.05669153
119	0xbd1cba0f	-0.038263377
120	0x3c87826e	0.016541686
121	0xbd108bd4	-0.0352896
122	0x3d817da7	0.063227944
123	0x3d695e33	0.0569746
124	0x3c4d5cde	0.012534348
125	0xbc3e4b5f	-0.01161465
126	0x3be8e455	0.0071072974
127	0x3e1be1db	0.15222876
128	0xbdbbf474	-0.09177485
129	0xbdbce845	-0.092239894
130	0x3d2c54f0	0.04207319
131	0x3d41bb69	0.04729787
132	0xbda5f8ef	-0.08104121
133	0xb9d5de03	-0.00040791937
134	0x3d783c74	0.060604528
135	0x3d50a749	0.050940786
136	0xbccb1e5f	-0.024794756
137	0x3d762fc7	0.060104158
138	0x3c1c54b8	0.009541683
139	0x3b0d5b84	0.002156944
140	0xbdd67380	-0.104712486
141	0x3d88e9fe	0.066852555
142	0xbd1abea2	-0.037779458
143	0x3c21a280	0.009865403
144	0xbc453eb2	-0.0120388735
145	0x3d0107ec	0.031501696
146	0xbcf83e44	-0.030303128
147	0xbd7ad420	-0.061237454
148	0xbdb279e4	-0.08714655
149	0xba0a5d97	-0.0005278228
150	0xbd572883	-0.05252887
151	0xbdf1f4f8	-0.11814302
152	0x3c58ae13	0.013225096
153	0xbdc2a9c7	-0.09505039
154	0xbd5a5bfb	-0.053310376
155	0x3defeb6a	0.117148235
156	0xbd3ce97b	-0.0461211
157	0x3d8e5ccb	0.069512926
158	0x3cd396e8	0.025828794
159	0x3d1d4d7b	0.03840397
160	0x3d862212	0.06549467
161	0x3d619532	0.055073924
162	0xbda04369	-0.078253575
163	0xbd512ca3	-0.05106796
164	0xbde8c08f	-0.11364853
165	0xbca668ac	-0.020313583
166	0xbdfa24f2	-0.12214078
167	0x3d9c8bff	0.0764389
168	0x3c7abe01	0.0153040895
169	0x3cda3fc4	0.026641734
170	0x3cbbe07a	0.022934187
171	0xbd592a1f	-0.053018685
172	0xbd986488	-0.0744105
173	0xbd365543	-0.044514906
174	0xbe0c987c	-0.13730043
175	0x3ce2d956	0.027691524
176	0x3c68a095	0.014198442
177	0x3cb30507	0.021852983
178	0x3d8829be	0.06648587
179	0xbde446df	-0.1114633
180	0x3e223069	0.1583878
181	0xbd1372ad	-0.035998035
182	0xbd8a274f	-0.06745779
183	0x3dbdedfe	0.09273909
184	0x3dc5ea54	0.09663835
185	0xbc3b98a7	-0.011449969
186	0x3b61ba03	0.0034443147
187	0xbc4ffb3d	-0.012694177
188	0x3d5d6c37	0.05405828
189	0x3c060f5e	0.008182375
190	0x3d2a561f	0.041586038
191	0x3c72040b	0.014771472
192	0xbd9e25c9	-0.07722051
193	0xbdf1113b	-0.117708646
194	0x3ce10597	0.027468486
195	0xbdf17742	-0.11790325
196	0xbcacf6b5	-0.021113733
197	0x3d2aebd9	0.041728828
198	0xbda4aead	-0.08041129
199	0xbcb223b2	-0.021745536
200	0xbdf28225	-0.11841229
201	0xbb1a6a17	-0.002356177
202	0xbd6f4f48	-0.058425218
203	0xbd5e324a	-0.054247178
204	0x3d598d6b	0.053113382
205	0xbdd41765	-0.10356025
206	0x3b9f9cad	0.004870972
207	0xbd2a4045	-0.0415652
208	0x3d9d3fe6	0.07678203
209	0x3d40e2cc	0.04709129
210	0xbd67e094	-0.05661066
211	0xbd277951	-0.04088718
212	0xbc3d33d4	-0.011548001
213	0xbdf3b6f1	-0.11900128
214	0x3ce43640	0.0278579
215	0x3d4f14bd	0.050556887
216	0xbdb6b2a5	-0.089207925
217	0xbcbe6ae0	-0.023244321
218	0x3d6e62c5	0.058199663
219	0x3cfec32b	0.031098923
220	0xbd86efae	-0.06588684
221	0xbd1e6423	-0.038669717
222	0x3d097662	0.033560164
223	0x3bdd1d6d	0.0067478926
224	0xbd7267d9	-0.059181068
225	0xbd713aa1	-0.058893804
226	0xbca1c944	-0.019749291
227	0xbe0da938	-0.13834083
228	0xbaa391f2	-0.0012479408
229	0xbd213eb5	-0.039366443
230	0xbc5884f8	-0.013215296
231	0xbd8de8e0	-0.06929183
232	0x3d70b72a	0.05876843
233	0x3dce03f9	0.100593515
234	0xbd9ec4c3	-0.07752373
235	0x3d5820c5	0.052765626
236	0xbdd0504b	-0.10171565
237	0xbe122e78	-0.14275539
238	0x3d2549ce	0.04035359
239	0xbd5fcc2b	-0.05463807
240	0xbbcc17d0	-0.0062284246
241	0x3c6c66fc	0.01442885
242	0x3cefbde0	0.029265344
243	0xbcd3312a	-0.02578028
244	0xbd65ba79	-0.056086037
245	0xbd3ab15b	-0.045579296
246	0xbdfb60a9	-0.12274296
247	0xbd96f2b5	-0.073705114
248	0x3dc17b68	0.09447366
249	0xbc9a8978	-0.018864378
250	0x3c3c2741	0.011483968
251	0x3d8fc869	0.07020647
252	0x3d7a2f76	0.06108042
253	0x3da1d7a8	0.07902461
254	0xbd328b9f	-0.043590184
255	0xbdb0296b	-0.0860165
