Assets/ML-Agents/platformBalance/models/1.0+0.5_0.1_brain3.onnx (onnx, 321473 bytes, 7 tensors)

action_model._continuous_distribution.log_sigma f4 [1, 2]
0	0xbc52ef5f	-0.012874453
1	0xbe19ecfc	-0.15031809

action_model._continuous_distribution.mu.bias f4 [2]
0	0xbb5f6363	-0.0034086339
1	0xbbc6b8b1	-0.0060644974

action_model._continuous_distribution.mu.weight f4 [2, 256]
0	0xbcaf34f7	-0.02138756
1	0x3cdbf51a	0.026850272
2	0x3b85f664	0.00408821
3	0x3b805caf	0.0039172987
4	0x3c827065	0.015922735
5	0xbb7ae8d6	-0.0038285754
6	0xbd1be5c8	-0.038060933
7	0xbb500187	-0.0031739192
8	0x3b870baa	0.0041212635
9	0xba3d8dc2	-0.00072309014
10	0x3c62146a	0.013798812
11	0x3bbd53d5	0.005777816
12	0xbc82a9b9	-0.01595007
13	0xbb56c355	-0.0032770236
14	0xbbcdabb6	-0.006276573
15	0x3c6ee351	0.014580564
16	0xbc01590c	-0.007894766
17	0xbc017403	-0.0079011945
18	0xbc14c6e3	-0.009080621
19	0x3bb11ca2	0.0054050246
20	0x3a71078f	0.0009194547
21	0x3c6d0379	0.01446616
22	0xbc049044	-0.008091036
23	0x3bc8c654	0.006127158
24	0xbc54b3d3	-0.012982327
25	0xbabaa2dc	-0.001423921
26	0x3d00c5ee	0.03143876
27	0x3a8d79c8	0.001079374
28	0x3ce098d8	0.027416632
29	0xbbcb5548	-0.0062052347
30	0x3bd2f1ae	0.006437502
31	0xbbc3c8e5	-0.005974876
32	0xbc1732ad	-0.009228391
33	0xbb173400	-0.0023071766
34	0xbbcd8111	-0.0062714894
35	0x3cf99209	0.030465143
36	0x3b0b15a4	0.0021222616
37	0x3bac5463	0.005259083
38	0x3bcea874	0.0063067023
39	0xbb679ce4	-0.0035341317
40	0x3bc38850	0.0059671775
41	0x3c428f44	0.0118749775
42	0x39bfd385	0.00036587953
43	0x3ba71c38	0.0050997995
44	0x3c044353	0.008072692
45	0xbb9bb55f	-0.0047518457
46	0x3bfce93c	0.0077182334
47	0x3c8912c4	0.016732581
48	0x3bee8568	0.007279087
49	0x3bb45e12	0.005504378
50	0x3b7bc45b	0.0038416598
51	0xbb2e81d7	-0.0026627684
52	0x3b989c08	0.0046572722
53	0xbb0a19c3	-0.0021072484
54	0xbbb21f81	-0.0054358845
55	0xbb0e2b0f	-0.0021693145
56	0x3ca8c93b	0.020603767
57	0xbb7e7319	-0.0038825928
58	0xbc033143	-0.00800735
59	0xbc766edd	-0.01504108
60	0xbb53231e	-0.0032216976
61	0x3bb2fb27	0.0054620686
62	0x398f5474	0.00027338008
63	0x3bafc518	0.0053640716
64	0x3bfb7b6b	0.0076746247
65	0xbd1e627b	-0.038668137
66	0xba4301e0	-0.0007438939
67	0x3c04ddc6	0.0081095155
68	0x3bae3703	0.0053166165
69	0xbbbc759c	-0.005751325
70	0xbaa6b40e	-0.0012718455
71	0x3cdb8657	0.026797457
72	0xb92c5c16	-0.00016437503
73	0xbc0c6cc7	-0.008570856
74	0xbb2a15a1	-0.0025952833
75	0x3c1ffbcf	0.009764626
76	0xbba8a890	-0.0051470473
77	0x3d212534	0.03934212
78	0xbcb3fecf	-0.021972088
79	0xbc3c91d1	-0.011509375
80	0x3d125461	0.035725
81	0x3bba407e	0.0056839576
82	0x3c63ae33	0.013896513
83	0x3c02a628	0.007974185
84	0x3cb878af	0.022518484
85	0xbb426755	-0.0029663641
86	0xbc955621	-0.018229546
87	0xbc089ddb	-0.008338417
88	0xbc845e8b	-0.016158363
89	0x3bc254b2	0.0059305066
90	0xbbe48f97	-0.006975125
91	0xbc114775	-0.008867134
92	0x3d8ef75c	0.06980774
93	0x3c290f7a	0.010318631
94	0x3cd48bfd	0.025945658
95	0x3beeb789	0.0072850627
96	0xbc0b37ff	-0.008497237
97	0xbbd7d9f1	-0.00658726
98	0x3c6376f5	0.013883342
99	0xbc604424	-0.013688121
100	0x394f809b	0.00019788968
101	0x3c0cccf1	0.008593784
102	0x3c4a5e9f	0.012351661
103	0x3c8bbf25	0.017058918
104	0x3bb2a3b6	0.005451645
105	0xbc528012	-0.012847917
106	0xba54fe9b	-0.00081250974
107	0x3a1f0e06	0.00060674583
108	0x3b05b583	0.002040238
109	0x3ceae2b6	0.028672557
110	0x3cc7d041	0.024391295
111	0xbb8e0299	-0.0043338058
112	0xbbcbe0f1	-0.0062218835
113	0x3d97932b	0.07401117
114	0x3add377c	0.0016877498
115	0xbc3d737f	-0.011563181
116	0xbc9d95cf	-0.019236473
117	0x3d55c228	0.052187115
118	0xbbf3cd23	-0.0074402257
119	0x3b913f5d	0.0044326023
120	0xbc42da10	-0.01189281
121	0x3d1b73ca	0.037952222
122	0x3b4ce1ae	0.0031262445
123	0x3c57e85e	0.013177959
124	0xbc9887b9	-0.018619405
125	0xbc0d92bc	-0.008640941
126	0x3a434b09	0.0007449841
127	0x3bd8b27f	0.0066130753
128	0x3bdeef4e	0.0068034297
129	0xb9639bdf	-0.00021706473
130	0xbbd8a281	-0.006611169
131	0xbc292e9c	-0.010326054
132	0x3c05e63f	0.008172571
133	0x3c011e80	0.007880807
134	0xbc4942ef	-0.012284025
135	0x3d78eab4	0.060770705
136	0x3bcd7619	0.006270182
137	0xbb7893b7	-0.0037929842
138	0xbc5300b6	-0.0128785875
139	0x3d9619d5	0.07329146
140	0xbb5ac78a	-0.0033383095
141	0xbad8d40f	-0.001654269
142	0x3d14dd5c	0.036343917
143	0x3d471200	0.04860115
144	0xbc279331	-0.010227964
145	0xbbbfd386	-0.005854073
146	0xbaf4c85f	-0.0018675438
147	0x3d010b7f	0.031505104
148	0x3cbf507c	0.023353808
149	0xbb97615b	-0.00461976
150	0xbc1b671c	-0.009485032
151	0xbcd48485	-0.025942096
152	0xbc8b7157	-0.017021818
153	0x3c0fef7e	0.008785127
154	0xba5489c6	-0.0008107688
155	0x3cc9fab4	0.024655677
156	0xbc873090	-0.016502649
157	0x3bfa588a	0.007639949
158	0x3bbb7d04	0.00572169
159	0x3ba07633	0.004896903
160	0xbbaabdb8	-0.0052106045
161	0xbb1c14ba	-0.0023816065
162	0xba619738	-0.0008605602
163	0xbbde7b80	-0.0067896247
164	0x3c21a69f	0.009866386
165	0x391433b5	0.00014133642
166	0xbc88ef90	-0.016715795
167	0x3a1080e9	0.0005512373
168	0xba0f45bf	-0.000546541
169	0xbb27ea45	-0.0025621813
170	0xba8e8360	-0.0010872893
171	0x3d13ca37	0.03608152
172	0x3ba57ea1	0.0050504957
173	0x3a0a39f4	0.0005272918
174	0xbc89bdaf	-0.016814081
175	0x3a72a347	0.00092558976
176	0xbabf4674	-0.001459314
177	0x3c268816	0.010164281
178	0x3c03a459	0.008034789
179	0xbc05fb8a	-0.008177647
180	0x3d33f9fe	0.043939583
181	0x3c2efb85	0.010680084
182	0x3ca5e9a4	0.02025301
183	0xba9c90b6	-0.0011944983
184	0xbc4f68c2	-0.012659254
185	0xbb5e71e9	-0.0033942407
186	0x3b2609c5	0.0025335413
187	0xbbdbf936	-0.006713058
188	0xbb077595	-0.002066945
189	0x3d9dedc2	0.07711364
190	0x3b7f550a	0.00389606
191	0xba02b150	-0.0004985528
192	0x3993a15b	0.00028158244
193	0xbc5070fc	-0.01272225
194	0xbcebc5bb	-0.028780809
195	0xbbbf28b9	-0.005833712
196	0xbc53a2fe	-0.012917278
197	0xbb2e7502	-0.0026620035
198	0xbc5a274e	-0.013315035
199	0xbc05a702	-0.008157494
200	0x3b3d9fd3	0.0028934374
201	0x3bf904ef	0.007599465
202	0xbcc8cce8	-0.02451177
203	0x3a87807f	0.0010337977
204	0xbc71e26b	-0.014763455
205	0xbbff021c	-0.007782234
206	0x3c2b4800	0.010454178
207	0xbbbf872b	-0.0058449707
208	0xbbb50982	-0.005524815
209	0x3cd5fb3d	0.026120776
210	0x3c3211d2	0.0108685065
211	0xbb805224	-0.003916042
212	0xbb87ef01	-0.0041483645
213	0xbb4cb314	-0.0031234669
214	0xbbb19017	-0.005418788
215	0xbbdb1d2c	-0.006686827
216	0xbc893c80	-0.016752481
217	0x3a6423f4	0.0008702867
218	0x3b949030	0.00453379
219	0x3b61f598	0.003447866
220	0xbb52c7c0	-0.0032162517
221	0xbbe06c8a	-0.0068488764
222	0xbc4098d5	-0.011755188
223	0xbb17162c	-0.0023053987
224	0xbba1fbee	-0.0049433624
225	0xbbcadc39	-0.0061908034
226	0x3bbb250f	0.005711205
227	0xbb850488	-0.004059378
228	0xbb3c0862	-0.002869152
229	0xbc3df077	-0.011592976
230	0x3ab6a2a1	0.0013933965
231	0xbc0936bb	-0.008374865
232	0x3b66b9cd	0.003520596
233	0xbb2e35fb	-0.0026582468
234	0x39f9a87f	0.0004761852
235	0x3cf8dc12	0.030378375
236	0xbaef2241	-0.0018244461
237	0xbc844773	-0.01614735
238	0xbcf8f7c2	-0.030391578
239	0x3b09b1d4	0.0021010535
240	0xbad11523	-0.0015951734
241	0xbb4e6fff	-0.003149986
242	0xbca73d51	-0.02041498
243	0xbba34ad1	-0.004983284
244	0x3ce4a9a9	0.027912932
245	0x3ba29984	0.004962148
246	0x3c3da28e	0.011574401
247	0x3b00d180	0.0019656122
248	0x3b08eb98	0.0020892378
249	0x3a8926ae	0.0010463798
250	0x3b446042	0.00299646
251	0xbc6ba0f1	-0.014381633
252	0x3ad8eaf0	0.0016549509
253	0x3b828455	0.0039830604
254	0x3c19b8e9	0.009382465
255	0xb99e8f3d	-0.0003024283

network_body._body_endoder.seq_layers.0.bias f4 [256]
0	0xbd2bb406	-0.04191973
1	0xbc0c9aa7	-0.008581794
2	0xbc1bc8a3	-0.009508285
3	0xbc4a91b8	-0.012363844
4	0xbc53a18a	-0.012916932
5	0xbc856fb1	-0.01628861
6	0xbc86cb8e	-0.016454484
7	0xb88a4111	-6.592472e-05
8	0xbc7e33cf	-0.015515282
9	0xbcf3e157	-0.029770536
10	0xbc9f5c11	-0.01945308
11	0xbc3f745a	-0.011685455
12	0xbb812cd5	-0.003942112
13	0xbca86520	-0.020556033
14	0xb9ae8b8a	-0.0003329183
15	0xbca4b4b6	-0.020105701
16	0xbc82b053	-0.015953219
17	0xbca525f5	-0.0201597
18	0xbc8b2220	-0.016984046
19	0x3a9322e8	0.0011225613
20	0x3c843ae9	0.016141372
21	0xbaaacab2	-0.0013030379
22	0xbbdef316	-0.0068038804
23	0xbbc9a5ed	-0.006153813
24	0x3be72f9f	0.0070552374
25	0xbc35e290	-0.01110138
26	0xbcdd0884	-0.0269816
27	0x3d282319	0.041049097
28	0xbbe8d1c3	-0.0071050837
29	0xbcc56439	-0.024095641
30	0xbcaf58dd	-0.021404678
31	0xbca67304	-0.020318516
32	0xbc9568e9	-0.018238502
33	0xba40862c	-0.0007344212
34	0xb98d0b23	-0.00026901913
35	0xbd15003a	-0.03637717
36	0x3d327cac	0.043575928
37	0xbc09027f	-0.0083624115
38	0xbc8e7cc0	-0.01739347
39	0xbce513fa	-0.027963627
40	0x3c31a1ad	0.010841769
41	0xbc9875a6	-0.018610787
42	0xbcb2b98e	-0.021816995
43	0xbcdabc29	-0.02670105
44	0xbd0be835	-0.034156997
45	0xbc941b01	-0.018079283
46	0xb1a9f290	-4.9461235e-09
47	0xbcad4e4d	-0.0211555
48	0xbca094d6	-0.01960222
49	0xbc9ed1a9	-0.019387083
50	0xbcdcc677	-0.026950104
51	0xbd06c6c9	-0.03290442
52	0xbc15d346	-0.00914461
53	0xb74c4954	-1.2176421e-05
54	0xbd0230c7	-0.0317848
55	0xbc106919	-0.00881412
56	0xb9682fc3	-0.00022143037
57	0xbcae2d83	-0.021261936
58	0x3adbce14	0.001676979
59	0xbb9f4e34	-0.0048616175
60	0xbc79f29c	-0.0152555965
61	0xbc21c31a	-0.009873176
62	0xbce8aed4	-0.028403677
63	0xbcabcb5f	-0.020970998
64	0x3d5c260f	0.053747233
65	0xbca12c7c	-0.019674532
66	0xbcdfb786	-0.02730919
67	0xbc102960	-0.008798927
68	0xbb837b32	-0.0040124888
69	0xbb0a0c4d	-0.002106446
70	0xbbe829d2	-0.0070850635
71	0xbc7f8142	-0.015594782
72	0x2ff45ae9	4.4447937e-10
73	0xbc298cca	-0.010348508
74	0xbcf78166	-0.03021307
75	0xbca820d4	-0.020523466
76	0xbc50a3bc	-0.01273435
77	0xbcfde72a	-0.030994017
78	0xbcdb028d	-0.026734615
79	0xbbcb1010	-0.006196983
80	0xbd05a83c	-0.032631144
81	0xbc0fa1e7	-0.008766628
82	0xbc5880b6	-0.013214281
83	0xbce2faf2	-0.02770755
84	0xbc78dd3e	-0.015189467
85	0xbd1b3494	-0.03789194
86	0xbd3fdd57	-0.046841945
87	0xbc074ecc	-0.008258533
88	0xbc60de3d	-0.013724861
89	0xbcb400b1	-0.021972986
90	0xbd35318c	-0.044236705
91	0xbc7d0186	-0.015442258
92	0xbce3329c	-0.027734093
93	0x3bc1ac48	0.00591043
94	0x3a9dd497	0.0012041506
95	0xbc342c70	-0.010996923
96	0xbcd3a118	-0.025833651
97	0xbc67a0cb	-0.014137457
98	0xbc804fab	-0.015662989
99	0xbc95c051	-0.01828018
100	0xbb647359	-0.0034858792
101	0xbc71f643	-0.014768186
102	0xbbb541b6	-0.005531515
103	0x3b8a54f6	0.004221554
104	0xbd0709ea	-0.03296844
105	0xbcb101b7	-0.021607263
106	0xbbddb6ea	-0.00676619
107	0xbbdb116e	-0.0066854274
108	0xbc9581d7	-0.018250389
109	0xbc9a994f	-0.018871931
110	0xbc10603a	-0.008812005
111	0xbc88c597	-0.01669578
112	0xbcb8639a	-0.022508431
113	0x3ba0d28b	0.004907911
114	0xbbb8b3f9	-0.005636689
115	0xbd14f975	-0.036370713
116	0xbcff6807	-0.031177534
117	0xbcb1c247	-0.021699084
118	0xbcc65156	-0.024208706
119	0xbc7a7153	-0.015285808
120	0xbbc44adf	-0.0059903706
121	0xbcb6824b	-0.022278925
122	0xbc727b14	-0.014799852
123	0xba19c6b6	-0.0005866097
124	0xb830357e	-4.201149e-05
125	0xbc9da6d2	-0.019244585
126	0xbce5de66	-0.02806015
127	0xbc867891	-0.016414912
128	0xbc0985c7	-0.008393711
129	0xbc9004ee	-0.017580476
130	0xbd37f424	-0.044910565
131	0xbc8e38c3	-0.01736105
132	0xbca9fdde	-0.020750936
133	0xbc7d5206	-0.01546145
134	0xbcdc633c	-0.026902787
135	0xbcf438ee	-0.029812302
136	0xbc571bd4	-0.013129193
137	0xbb38cfa0	-0.0028199926
138	0x3093ce88	1.0754357e-09
139	0xbd3733bb	-0.04472707
140	0xbca03fe0	-0.019561708
141	0xbd0fb9a5	-0.035089154
142	0xbd0f95bb	-0.035054903
143	0xbc1f487b	-0.0097218705
144	0x3ca97b90	0.020688802
145	0xbcb34fcc	-0.021888636
146	0xbcc8b80b	-0.024501821
147	0xbbd117e4	-0.006381022
148	0xbcbaf3ec	-0.02282139
149	0xbcd1f1be	-0.025627967
150	0xbc69c9cf	-0.014269306
151	0xbc62966d	-0.01382981
152	0x3a691566	0.0008891433
153	0xbd3dc907	-0.046334293
154	0xbd1465f3	-0.03623004
155	0xbc9d5fd4	-0.019210733
156	0xbcbac6e9	-0.022799926
157	0x3be4cd58	0.0069824867
158	0xbd1b735e	-0.03795182
159	0xbcedff57	-0.02905242
160	0xbc94d9f0	-0.018170327
161	0xbb168536	-0.0022967583
162	0x3c02e542	0.00798923
163	0xbc0f664d	-0.008752418
164	0xbc9a2e2b	-0.018820843
165	0xbcebfa75	-0.02880595
166	0xbd30252c	-0.0430042
167	0xbcabda59	-0.02097814
168	0xbcb5831c	-0.022157244
169	0xbcded6f7	-0.027202113
170	0xbc9eb921	-0.019375386
171	0xbc5dbf38	-0.01353436
172	0xbc52499c	-0.012834933
173	0xbd16ccad	-0.036816288
174	0xbc0de180	-0.00865972
175	0xbc4908e3	-0.012270185
176	0xbd58a83e	-0.052894823
177	0xbd6ab57a	-0.057301976
178	0xbc69dc6f	-0.014273747
179	0xbc4b4605	-0.012406831
180	0xbc712e2e	-0.014720483
181	0xbc8cb90f	-0.017178087
182	0x3bc79182	0.006090344
183	0xbc8921fd	-0.01673984
184	0xbcc713bf	-0.024301408
185	0xbcb25210	-0.021767646
186	0xbc506762	-0.012719961
187	0xbcbb5161	-0.022865953
188	0xbc941295	-0.018075267
189	0xbc153291	-0.009106294
190	0xbd0470e6	-0.03233423
191	0xbc8836fb	-0.01662778
192	0xbcdd1570	-0.026987761
193	0xbcfcf15a	-0.030876804
194	0xbbc5c3e1	-0.0060353135
195	0xbc3cec03	-0.011530879
196	0xbc89cfd6	-0.016822737
197	0xbcf5a919	-0.029987859
198	0xbcd848e9	-0.026401954
199	0xbcb88d68	-0.022528365
200	0xbc0136bd	-0.007886586
201	0xbc853a2c	-0.01626309
202	0xbcc0126d	-0.023446286
203	0xbca8ba98	-0.020596787
204	0xbc7d70ff	-0.015468835
205	0x3c2c2da8	0.010508932
206	0xbc34e03c	-0.01103979
207	0xbd0d284a	-0.03446225
208	0xbcc63f29	-0.024200039
209	0xbbbef53a	-0.005827573
210	0xb9ec0141	-0.00045014362
211	0xbc9d06e3	-0.019168323
212	0xbc66f520	-0.014096528
213	0xbc4805af	-0.012208386
214	0xbcb8ab3b	-0.022542587
215	0xbcc20043	-0.023681765
216	0xbcb9d28b	-0.022683403
217	0xbcbc1463	-0.02295894
218	0x3d39a737	0.045325484
219	0xbc23f0c4	-0.0100061335
220	0xbd01f2fd	-0.031725872
221	0xbc0b821d	-0.008514908
222	0x359ce95c	1.1690822e-06
223	0x39171491	0.00014408144
224	0xbc7c0057	-0.01538094
225	0xbc3d9d86	-0.011573201
226	0xbbef034b	-0.0072940937
227	0xbccd3be4	-0.025052972
228	0xbc6d83e9	-0.014496782
229	0xbce4d5f8	-0.02793406
230	0xbbd71793	-0.0065640896
231	0xbcf66e50	-0.030081898
232	0xbc29a572	-0.010354387
233	0xbc947890	-0.018123895
234	0xbbd72d8b	-0.0065667084
235	0xb63658a0	-2.71717e-06
236	0xbc348567	-0.011018134
237	0xbc3d3f2f	-0.011550709
238	0xbcd82f8a	-0.026389856
239	0xb71fe3b6	-9.530157e-06
240	0xbcdba265	-0.026810834
241	0xbc9133f0	-0.017724961
242	0xbc1df690	-0.009641305
243	0xbc6107a1	-0.013734729
244	0xbcd6dee3	-0.026229328
245	0xbd1543da	-0.03644166
246	0xbafe2231	-0.0019388852
247	0xbcd3a4a3	-0.02583534
248	0xbcdcdd9f	-0.026961146
249	0xbcdfaa44	-0.027302869
250	0xbcb117b1	-0.021617742
251	0xbc783e03	-0.0151515035
252	0xbc21c683	-0.009873989
253	0xbc900d3a	-0.017584432
254	0x3b9f3f03	0.0048598065
255	0xb9fbf774	-0.00048058818

network_body._body_endoder.seq_layers.0.weight f4 [256, 52]
0	0x3bbf5542	0.005839021
1	0xbcb2525f	-0.021767793
2	0x3dfc56f3	0.12321272
3	0xbd9c5c82	-0.07634832
4	0xbd8868a6	-0.06660585
5	0x3e19441b	0.14967386
6	0x3e6db4a0	0.23213434
7	0xbe890b53	-0.26766452
8	0xbe7df67e	-0.2480106
9	0xbe5ae5c9	-0.21376719
10	0xbd8539c1	-0.06505156
11	0xbc204aa8	-0.009783424
12	0x3cf51d4b	0.029921195
13	0x3c9ddd3c	0.019270532
14	0x3e7ace4f	0.24492763
15	0xbda09d44	-0.07842496
16	0x3df61e86	0.12017541
17	0xbdc5c905	-0.09657482
18	0xbdd0f5dc	-0.10203144
19	0xbda3b0ad	-0.079926826
20	0xbe0b2d84	-0.13591582
21	0x3cb006f8	0.021487698
22	0xbe07af23	-0.13250403
23	0xbdeff832	-0.117172614
24	0x3e2af94e	0.16696665
25	0x3de027ab	0.10945066
26	0xbdba4ebc	-0.09097049
27	0x3e2b3f65	0.16723402
28	0xbd97b689	-0.07407863
29	0xbe93d508	-0.28873467
30	0x3ec2d65f	0.38054177
31	0xbcec8516	-0.028872054
32	0x3dc2b467	0.09507065
33	0x3a0801b9	0.0005188245
34	0xbd91c4e4	-0.07117632
35	0x3de0555c	0.10953781
36	0xbe71bba8	-0.23606741
37	0x3da6521a	0.081211284
38	0x3e0cc378	0.1374644
39	0xbd969a10	-0.07353604
40	0x3e09a0f2	0.13440302
41	0x3e9a52c0	0.30141258
42	0x3e753db7	0.23949324
43	0x3ea82cb6	0.32846612
44	0x3e00d5d9	0.12581576
45	0xbd4745e1	-0.048650626
46	0xbe8533b0	-0.26015997
47	0x3e0495a4	0.12947708
48	0x3e1b87d5	0.15188535
49	0x3d4a38af	0.049370464
50	0x3e8ce490	0.2751813
51	0xbe69d19a	-0.22833863
52	0xbddb2b90	-0.10701668
53	0xbd09051b	-0.033452135
54	0x3c8057c5	0.015666852
55	0x3e273621	0.16329242
56	0x3e459e59	0.19298686
57	0x3ea198b4	0.31561816
58	0xbd46c438	-0.048526973
59	0x3d463f3d	0.048400152
60	0x3ddf9efd	0.109189965
61	0x3b94dbb3	0.0045427918
62	0xbe3cc515	-0.18434556
63	0x3d29adcd	0.041425515
64	0xbe76ea3e	-0.24112794
65	0x3d21d08e	0.039505534
66	0xbe2990c9	-0.16559137
67	0x3beb1394	0.0071739648
68	0xbd4e6f7a	-0.05039928
69	0xbc335e55	-0.0109477835
70	0x3e40e54e	0.18837473
71	0x3d333ff0	0.043762147
72	0x3cefc45c	0.029268436
73	0xbe415607	-0.18880473
74	0x3c71a4cb	0.014748762
75	0x3e017e37	0.12645803
76	0x3e3e82b2	0.18604544
77	0xbd86def4	-0.06585494
78	0xbe016a24	-0.12638146
79	0x3e96b9a5	0.2943851
80	0x3da1014b	0.07861575
81	0x3d98a7c2	0.07453872
82	0xbcf1fed7	-0.029540462
83	0xbbda70ba	-0.00666627
84	0xbdd0ef95	-0.10201947
85	0x3dfa2fb8	0.12216133
86	0xbda1ea5f	-0.07906031
87	0xbd12ddee	-0.03585618
88	0x3e555569	0.20833363
89	0x3d9167f3	0.07099905
90	0x3bb6915d	0.005571528
91	0xbdd26d62	-0.10274769
92	0xbdc4dc6e	-0.09612356
93	0xbea60050	-0.32422113
94	0x3e1225a1	0.14272167
95	0x3e59e270	0.21277785
96	0x3e6470a3	0.22308592
97	0x3e940395	0.28908983
98	0x3d747720	0.05968392
99	0x3d5fc621	0.05463231
100	0x3e4e3fcd	0.20141526
101	0x3dd8b2be	0.10580967
102	0x3da6e4e9	0.0814913
103	0xbc27b159	-0.010235154
104	0xbd1615bc	-0.03664182
105	0xbdc7b158	-0.097506225
106	0x3cbca0b6	0.023025852
107	0x3da92a61	0.08260036
108	0xbe6c899e	-0.23099372
109	0xbe86592d	-0.2623991
110	0xbe594634	-0.21218187
111	0x3d9d2bd1	0.07674373
112	0x3d26625f	0.040621158
113	0x3dce322b	0.100681625
114	0xbd79dc9f	-0.061001416
115	0x3c04905a	0.008091057
116	0x3b1d2a8d	0.002398166
117	0x3d4c34e7	0.04985514
118	0xbeadaff8	-0.33923316
119	0x3c146d1a	0.009059215
120	0x3e87248f	0.2639508
121	0xbc049fa8	-0.008094706
122	0xbeb9c05a	-0.36279565
123	0xbe684dc8	-0.22685921
124	0xbd127df3	-0.035764646
125	0xbe0cfaef	-0.13767599
126	0xbe093c38	-0.13401878
127	0xbe31ed67	-0.17375718
128	0x3d2050ea	0.039139666
129	0x3c50fdcd	0.012755823
130	0xbd6053de	-0.054767482
131	0x3e5b621a	0.21424142
132	0xbdd88749	-0.105726786
133	0x3df14aa7	0.11781817
134	0xbdb0a4dc	-0.086251944
135	0xbd8e622c	-0.069523185
136	0xbddd4c76	-0.108055994
137	0xbcb2820e	-0.02179053
138	0x3dfaa823	0.12239101
139	0xbe182413	-0.14857511
140	0x3e40f45c	0.18843216
141	0x3db42bb0	0.08797395
142	0xbd88b559	-0.06675214
143	0x3b8aab82	0.004231871
144	0xbe002374	-0.12513524
145	0xbd73511c	-0.059403524
146	0xbd924fea	-0.07144149
147	0x3daa4b5f	0.08315157
148	0x3d4ae7b9	0.049537394
149	0xbd2e6b48	-0.04258278
150	0xbd88903b	-0.06668135
151	0x3cd7c2e1	0.026338043
152	0xbceca51d	-0.028887326
153	0xbe8464cb	-0.2585815
154	0xbd47eb79	-0.04880855
155	0x3e373f3e	0.17895219
156	0xbd5f80ae	-0.054566078
157	0x3dcaa59c	0.09894869
158	0xbcf22126	-0.029556822
159	0xbd855659	-0.0651061
160	0x3ded625e	0.11591028
161	0xbddf4f6e	-0.10903822
162	0x3d3d23b3	0.046176624
163	0xbe673ddd	-0.22582193
164	0xbc9bdf98	-0.019027516
165	0xbdaecad7	-0.085347824
166	0xbcb92a52	-0.022603188
167	0xbd01a69a	-0.031653024
168	0xbe40c21a	-0.18824044
169	0xbd98ab71	-0.07454575
170	0x3e259adb	0.16172354
171	0xbda564b6	-0.0807585
172	0x3e962d8a	0.2933162
173	0xbd1f0c9f	-0.038830396
174	0xbda7ba87	-0.08189874
175	0x3e40799d	0.18796392
176	0xbe4bf13a	-0.1991624
177	0xbdcccb89	-0.09999759
178	0xbe0eb510	-0.13936257
179	0xbdf2da35	-0.11858026
180	0x3ecac901	0.3960648
181	0x3cc4b242	0.024010781
182	0xbe5c4a9e	-0.21512839
183	0xbd2bb7b9	-0.04192326
184	0x3eceba68	0.40376592
185	0x3da5a4f5	0.08088104
186	0xbea84b1c	-0.32869804
187	0x3ce87a37	0.02837859
188	0x3e0ae20f	0.13562797
189	0x3dc090aa	0.094025925
190	0x3dd4bab5	0.10387174
191	0x3dde08e4	0.108415395
192	0xbd61d99e	-0.055139177
193	0x3e474e69	0.19463505
194	0xbda30df9	-0.079616494
195	0xbdc1618d	-0.094424345
196	0x3e124214	0.1428302
197	0xbd189fcc	-0.03726177
198	0x3d9f162a	0.07767899
199	0x3dbe734e	0.092993364
200	0xbbc1f8af	-0.005919538
201	0x3d907317	0.07053202
202	0xbd91aa8b	-0.071126066
203	0x3ca699c9	0.020337002
204	0x3d5ac546	0.05341079
205	0x3e2d6091	0.16931368
206	0x38e2657f	0.00010795425
207	0x3e9e4434	0.3091141
208	0x3d447d63	0.04797114
209	0xbc89741d	-0.016779
210	0xbc91b1e9	-0.01778503
211	0xbe48b2a0	-0.1959939
212	0x3da1a82a	0.07893403
213	0xbda2c050	-0.07946837
214	0xbdef5e01	-0.11687852
215	0xbb7b96e4	-0.0038389498
216	0xbde43c00	-0.111442566
217	0xbe2d89b0	-0.16947055
218	0xbe492b90	-0.19645524
219	0x3c01063d	0.0078750225
220	0x3dd29bda	0.102836326
221	0x3d6c3e1f	0.05767643
222	0xbe8022cb	-0.25026545
223	0xbdf156f5	-0.11784164
224	0xbe1f1f08	-0.15539181
225	0x3de4a79a	0.1116478
226	0xbd9f71ec	-0.07785401
227	0xbd7b91e4	-0.06141843
228	0xbe12c215	-0.14331849
229	0xbe4cb84d	-0.1999218
230	0x3e5d9a6a	0.21640936
231	0xbd8838b9	-0.06651444
232	0xbe158568	-0.14601672
233	0x3e7e6982	0.24844936
234	0x3d817338	0.06320804
235	0x3de84244	0.11340764
236	0x3dd63dbf	0.10460996
237	0xbe4b5232	-0.19855574
238	0xbc74f8e4	-0.014951918
239	0xbe064ea1	-0.13115932
240	0x3daab30e	0.08334933
241	0xbdaf292a	-0.08552773
242	0xbd8674ef	-0.06565272
243	0xbd03b9d8	-0.032159656
244	0x3e3e51e2	0.18585923
245	0x3ba9a807	0.005177501
246	0x3e53d205	0.20685585
247	0x3c524c13	0.01283552
248	0x3df76766	0.120802686
249	0x3d23e59c	0.040013894
250	0x3dcf92ab	0.101353966
251	0xbe15ed37	-0.14641272
252	0x3d305b2f	0.04305571
253	0x3bdd2a3a	0.0067494186
254	0xbe02396d	-0.12717219
255	0xbe0ec151	-0.13940932

network_body._body_endoder.seq_layers.2.bias f4 [256]
0	0x3ba82948	0.0051318742
1	0xbbcb98dc	-0.0062132906
2	0xbc0a3867	-0.008436299
3	0xbcadb5a9	-0.021204786
4	0x3cdd50c4	0.027016051
5	0xbbed77d1	-0.0072469492
6	0xbc52aee2	-0.012859078
7	0xbc52d211	-0.012867467
8	0xbbc2b078	-0.005941447
9	0x3bea570b	0.0071514896
10	0xbc1a6980	-0.009424567
11	0xbc40007d	-0.011718866
12	0x3ca0e050	0.01963821
13	0xbbd1941a	-0.006395829
14	0xbc9177e5	-0.017757365
15	0xbc9c211e	-0.01905876
16	0xbc402f97	-0.011730096
17	0xb9b9ed50	-0.0003546276
18	0xbc83587c	-0.016033404
19	0xbc041d6c	-0.008063655
20	0xbca5d425	-0.02024276
21	0xbb6c8681	-0.0036090913
22	0xbc9545f6	-0.018221837
23	0xbb9a3b56	-0.0047067804
24	0xbbabfe26	-0.0052488027
25	0xbc4bae40	-0.012431681
26	0x3cbb6a17	0.022877736
27	0xbc17d48d	-0.009266985
28	0x3bfd3c0e	0.0077281063
29	0xbc697f6c	-0.014251571
30	0xbc36c596	-0.011155507
31	0xbc6f4e83	-0.014606121
32	0xbc3db75f	-0.011579364
33	0xbc797316	-0.0152251925
34	0xbc32b5c2	-0.010907592
35	0xbbcf656f	-0.0063292305
36	0xbbddc570	-0.006767921
37	0xbc1c2d89	-0.009532341
38	0xbbcafbf3	-0.0061945855
39	0xbc83bf6b	-0.016082486
40	0xbbe88834	-0.007096315
41	0xbc105221	-0.008808644
42	0xbc80aaab	-0.01570638
43	0xbc2c2339	-0.010506445
44	0xbc0b4b2c	-0.008501809
45	0x3bb14aba	0.0054105194
46	0xbc3819b6	-0.011236599
47	0xbc1b4c19	-0.009478592
48	0xbaacdb61	-0.0013187939
49	0xbcac07b2	-0.020999763
50	0xbb928569	-0.00447147
51	0xbc7113f8	-0.014714234
52	0x38f2822b	0.00011563705
53	0x3cfbd18a	0.030739564
54	0xbc1c32d7	-0.009533606
55	0xbc980ae4	-0.01855988
56	0x3ae4a96e	0.0017445514
57	0x3b46e7dd	0.0030350604
58	0x3b1d79dd	0.0024028935
59	0xbc6bb181	-0.014385582
60	0x3cae07a6	0.021243881
61	0x3b7f8277	0.0038987675
62	0x3c2d1499	0.010563993
63	0xbc32e443	-0.01091868
64	0xbc5a0f2c	-0.013309281
65	0x39b0bab3	0.00033708438
66	0xbc4d6959	-0.012537324
67	0xbb25071f	-0.0025181246
68	0xbc495536	-0.012288382
69	0xbc2bc0c2	-0.010482969
70	0xbbbd2dd9	-0.0057732877
71	0xbbb03a86	-0.0053780703
72	0xbc335899	-0.010946416
73	0xbc5f275f	-0.013620227
74	0xbc880b27	-0.01660688
75	0x3c89bb65	0.01681299
76	0xb8cc9ec4	-9.7570504e-05
77	0xbc135b52	-0.00899394
78	0xbc015bb8	-0.007895403
79	0x3aee4905	0.001817972
80	0xbbdb384a	-0.00669006
81	0xbc374e72	-0.011188136
82	0xbc86ec8f	-0.016470222
83	0xbc46dff6	-0.012138357
84	0xbbe03422	-0.006842152
85	0xbc74d00a	-0.0149421785
86	0xbca2386c	-0.019802295
87	0x3b26fb3d	0.002547934
88	0x3b02100e	0.0019845995
89	0xb8f23c05	-0.00011550639
90	0xbc1975a1	-0.009366424
91	0x3bbac7d9	0.005700093
92	0xb9a99f1e	-0.00032352743
93	0xbc86d924	-0.016460963
94	0x3c9ce6f8	0.019153103
95	0xbc2251de	-0.009907214
96	0x3b53071f	0.003220029
97	0xbc3ae8ed	-0.011408073
98	0xbc4b2557	-0.012399039
99	0xbc1978f6	-0.009367218
100	0xbc1dc7e5	-0.009630178
101	0xbc223d19	-0.009902262
102	0xbc326387	-0.010887987
103	0xbc748d8d	-0.014926326
104	0x39b58ea1	0.00034629277
105	0xbc42446e	-0.011857135
106	0xbc232ea7	-0.009959853
107	0xbc5dffca	-0.013549754
108	0xbc62d0b2	-0.013843702
109	0xbc229459	-0.009923064
110	0xbc374724	-0.011186395
111	0xbc335d72	-0.010947572
112	0xbb2d7ab7	-0.0026470849
113	0x3cae15c5	0.021250615
114	0xbbb08049	-0.0053863865
115	0xbbfd9e39	-0.007739809
116	0xbc6898cf	-0.014196589
117	0xbb655f49	-0.0034999421
118	0xbc92cf6a	-0.017921168
119	0xbc653c5a	-0.01399144
120	0xbc1cf780	-0.009580493
121	0xbb851482	-0.0040612826
122	0xbc115878	-0.00887119
123	0xbc589034	-0.013217974
124	0xbcc00ca5	-0.02344353
125	0xbc56174f	-0.013067081
126	0xbc9b588f	-0.018963126
127	0x3a106d35	0.0005509437
128	0xbc856ca1	-0.01628715
129	0x3ce84a69	0.028355794
130	0xbc4bf10e	-0.012447609
131	0x3befc444	0.007317098
132	0xbbd2fa3a	-0.0064385207
133	0xbc9e4497	-0.019319816
134	0xbc62d4bc	-0.013844665
135	0xbbbdcf01	-0.005792499
136	0xbbdcf766	-0.0067433594
137	0xbc4abcaf	-0.012374087
138	0x3be3f854	0.0069570933
139	0xbb8e00ce	-0.004333592
140	0xbbd30cea	-0.0064407485
141	0xbc603a44	-0.013685767
142	0x3b812117	0.003940712
143	0x3a46f38e	0.0007589393
144	0x3c3bea6a	0.011469463
145	0xbc820bd0	-0.015874773
146	0xbc023f52	-0.007949667
147	0xb9ce30e5	-0.0003932781
148	0xbb4f7524	-0.0031655515
149	0xbc122169	-0.008919098
150	0xbab00361	-0.0013428741
151	0x3c278368	0.010224201
152	0x3c371dd5	0.011176546
153	0x3ca030a6	0.019554447
154	0x3ca97d07	0.0206895
155	0x3c801c6a	0.015638549
156	0xbc4185d9	-0.011811697
157	0xbbd8ffeb	-0.0066223047
158	0xbbf272ef	-0.007398955
159	0xbc228494	-0.009919304
160	0xbc074ca7	-0.008258021
161	0xbc4015de	-0.011723964
162	0xbc570297	-0.013123176
163	0xbc5698fe	-0.013098
164	0xbc133e5b	-0.008987035
165	0xbc65f230	-0.014034793
166	0x3ae0e9d9	0.0017159536
167	0xbb6ccd1d	-0.0036133
168	0xbc4880c9	-0.012237736
169	0xbc9862bc	-0.018601768
170	0xbc510577	-0.012757651
171	0x3ae502af	0.0017472113
172	0x3b3fc088	0.0029259045
173	0xbc5f482f	-0.01362805
174	0xbcaa66ce	-0.020800974
175	0xbc0bd83e	-0.008535443
176	0xbc68b671	-0.014203654
177	0xbc312040	-0.010810912
178	0xbc1c8ddf	-0.009555309
179	0x3a3611aa	0.0006945381
180	0x3aed1f10	0.0018090922
181	0xbc7cf207	-0.015438563
182	0x3d04dd28	0.032437474
183	0xbbea7972	-0.0071555907
184	0xbbcf916c	-0.0063344743
185	0xbc105557	-0.008809409
186	0x3cdcd185	0.026955375
187	0xbbf96c21	-0.007611767
188	0xbc69cd52	-0.014270144
189	0x3bf403fc	0.007446764
190	0xbbccdc8a	-0.0062518762
191	0xbb9cf97e	-0.004790484
192	0xbc83c189	-0.016083496
193	0x3a46484d	0.0007563874
194	0xbaf4853a	-0.0018655427
195	0xbb49e452	-0.0030806256
196	0x3b7d578d	0.003865692
197	0xbc17eeb1	-0.009273217
198	0xbb17278e	-0.0023064348
199	0xbc3c2b06	-0.011484867
200	0xbc2efaab	-0.010679881
201	0xbbe2ba1a	-0.0069191577
202	0x3bbc03b7	0.0057377475
203	0xbc315399	-0.010823154
204	0x3b6ed878	0.0036444943
205	0xbc96a8c0	-0.018391013
206	0xbc496f90	-0.012294665
207	0xbc474fda	-0.012165034
208	0xbcb448fe	-0.022007462
209	0xbb4c11ed	-0.0031138614
210	0xbb9289fa	-0.0044720145
211	0x3aea735a	0.0017887161
212	0xbc049f31	-0.008094595
213	0xbc5b2b23	-0.013376984
214	0xbc566a1b	-0.013086821
215	0xbc4e6601	-0.012597562
216	0xbadc0149	-0.0016785051
217	0x3ad7b382	0.0016456696
218	0xbc674e95	-0.0141178565
219	0xbba9c06c	-0.005180409
220	0xbcb302ea	-0.021851975
221	0xbc307bea	-0.010771731
222	0xbb97eb8a	-0.0046362327
223	0xbcc3143f	-0.023813365
224	0xbc808bd4	-0.015691675
225	0xbc5eebf8	-0.013606064
226	0xbbd8240e	-0.006596095
227	0xbc24edc7	-0.010066456
228	0x3abf4348	0.0014592195
229	0x3b362355	0.0027792056
230	0xbbedc174	-0.0072557274
231	0xbc2d23a1	-0.010567577
232	0xbc8da140	-0.017288804
233	0xbc89fa8a	-0.0168431
234	0xbc8abf2a	-0.016936857
235	0x3c4795f0	0.012181744
236	0xbc05805b	-0.008148278
237	0xbb365f81	-0.002782792
238	0x3b9c0d82	0.0047623524
239	0xbcbeac3f	-0.023275493
240	0xbc885922	-0.016644064
241	0x3b624859	0.0034527986
242	0x3b8a24d3	0.0042158156
243	0xbc55e18a	-0.013054261
244	0xbbd8eacd	-0.0066197873
245	0xbc368a1a	-0.011141324
246	0xbc03b326	-0.008038318
247	0xbb02469f	-0.001987852
248	0xbca4cc0b	-0.020116827
249	0x3b4bee50	0.0031117387
250	0xbc07681f	-0.0082645705
251	0x3aa3cd78	0.0012497148
252	0xbbc7d67e	-0.0060985675
253	0xbc1ac464	-0.009446237
254	0xbc477007	-0.0121727055
255	0xbc231b15	-0.009955187

network_body._body_endoder.seq_layers.2.weight f4 [256, 256]
0	0x3c923f3f	0.017852424
1	0x3d776a65	0.0604042
2	0x3d5cc190	0.053895533
3	0xbd05d360	-0.032672286
4	0x3d362872	0.044472165
5	0x3d6569d2	0.05600912
6	0x3daf2264	0.08551481
7	0xbda6583b	-0.081222974
8	0x3da16f36	0.0788254
9	0x3da9ae44	0.08285192
10	0x3d1633c3	0.036670458
11	0x3d34f8e2	0.044182666
12	0x3df61f9d	0.120177485
13	0x3d7ba41a	0.061435796
14	0xbcb820d2	-0.022476587
15	0x3d0339ae	0.03203743
16	0x3c059cae	0.008155031
17	0xbdbbc703	-0.09168818
18	0x3c2f7b81	0.010710598
19	0xbca5c325	-0.020234654
20	0xbdc3f7a6	-0.095687196
21	0x3c56279d	0.013070968
22	0x3d1b734b	0.03795175
23	0x3d4716ae	0.048605613
24	0x3caa4072	0.020782683
25	0xb9b9b617	-0.00035421617
26	0xbdc16a17	-0.09444063
27	0x3c888a39	0.016667472
28	0x3df0a586	0.11750321
29	0xbcf79fa3	-0.030227488
30	0xbd2b0906	-0.041756652
31	0xbd30173b	-0.042990904
32	0x3d906998	0.070513904
33	0x3d17d79c	0.037070855
34	0x3c3d69fe	0.011560915
35	0x3b57afbe	0.0032911147
36	0x3dac1f67	0.08404427
37	0x3bf83f21	0.007575885
38	0xbdc9c629	-0.09852249
39	0x3c02c9eb	0.007982711
40	0xbbb9a7f5	-0.005665774
41	0x3c402b38	0.011729054
42	0xbd7d858c	-0.06189494
43	0x3de35574	0.11100283
44	0x3c7abb07	0.01530338
45	0xbddfd805	-0.10929874
46	0xbcf133ee	-0.029443707
47	0x3d7fb91a	0.062432386
48	0xbd674085	-0.056458015
49	0xbc03f5a7	-0.008054174
50	0xbdbc1e84	-0.09185508
51	0xbd05bfdb	-0.03265367
52	0xbcb4e63a	-0.022082437
53	0xbbd10e86	-0.006379905
54	0x3c8eca3b	0.017430415
55	0x3d83888e	0.0642253
56	0xbd0a6bde	-0.033794276
57	0xbb3ba93c	-0.0028634807
58	0xbd5d116b	-0.05397169
59	0x3db6bc95	0.08922688
60	0x3cca4251	0.024689825
61	0x3d32fda1	0.04369891
62	0x3c09ec90	0.008418217
63	0x3d482163	0.048859965
64	0x3d036513	0.032078814
65	0xbc7c3973	-0.015394556
66	0x3d2955cd	0.04134159
67	0xbd474da8	-0.048658043
68	0xbbafa241	-0.0053599183
69	0xbe011f02	-0.12609485
70	0xbdbdca6a	-0.09267123
71	0xbe062ce8	-0.13103068
72	0xbd289c55	-0.041164715
73	0x3d889af5	0.06670181
74	0x3d96b3d1	0.07358516
75	0xbb4919b1	-0.003068548
76	0x3c79f796	0.015256783
77	0xbd1c6865	-0.038185496
78	0xbda0a99b	-0.0784485
79	0x3da4c92b	0.08046182
80	0xbc9f5e8a	-0.01945426
81	0xbe0b92ef	-0.1363027
82	0x3caf063c	0.021365277
83	0x3d0365a1	0.032079343
84	0xbdd5b549	-0.10434968
85	0x3dc73abc	0.097279996
86	0x3d4f1295	0.05055483
87	0x3ce78553	0.028261816
88	0xbc78414a	-0.015152285
89	0xbb988665	-0.004654693
90	0xbdd10184	-0.10205367
91	0x3dda2a66	0.10652618
92	0x3e3772ed	0.17914934
93	0xbc65cdee	-0.014026148
94	0xbe20e277	-0.1571139
95	0x3db89922	0.09013583
96	0x3cb93e61	0.022612752
97	0x3d5eccf9	0.054394696
98	0xbd8b51f9	-0.068027444
99	0xbcd1d55e	-0.025614437
100	0x3cc513fa	0.024057377
101	0xbd9cb4c8	-0.07651669
102	0x3cdfff5b	0.027343443
103	0xbcc626dc	-0.024188451
104	0x3d28fc63	0.04125632
105	0xbdab5124	-0.08365086
106	0xbc06ea97	-0.0082346415
107	0x3dce99a4	0.100878984
108	0x3db2c194	0.08728328
109	0xbe0d97ed	-0.13827486
110	0xbc0db159	-0.00864824
111	0x3c96ce09	0.018408792
112	0xbd035303	-0.032061588
113	0x3d3e5924	0.04647173
114	0xbbb2e865	-0.0054598325
115	0x3cfd2c98	0.030905053
116	0x3cdb1310	0.026742488
117	0xbd26b682	-0.040701397
118	0xbb21f189	-0.0024710617
119	0xbae42885	-0.0017407095
120	0x3c21cab4	0.009874988
121	0x3d5b7564	0.05357875
122	0x3e01f708	0.12691891
123	0xbd5db35e	-0.054126136
124	0x3c86afb4	0.016441204
125	0x3d7b6799	0.061378095
126	0x3cbb55f9	0.022868143
127	0xbd1a9584	-0.037740245
128	0xbdc55a32	-0.09636344
129	0x3cfbe6f9	0.030749785
130	0xbd420ad4	-0.047373608
131	0x3e1e6449	0.15467943
132	0xbd8fb6a6	-0.07017259
133	0xbb470906	-0.0030370369
134	0xbd389bb1	-0.045070354
135	0xbdf470d4	-0.11935583
136	0xbdbbce0c	-0.0917016
137	0x3c843a98	0.01614122
138	0x3d0c5ccb	0.03426818
139	0xbd640ff5	-0.05567928
140	0x3d79548f	0.060871657
141	0xbd35a8ba	-0.044350363
142	0xbdf1bf3b	-0.118040524
143	0x3d5bb35b	0.053637844
144	0xbdb75d5b	-0.08953353
145	0x3d8b554f	0.06803381
146	0xbbcc5083	-0.0062351837
147	0x3a00d7e5	0.00049149833
148	0x3d06e748	0.03293541
149	0xbb4cd1c7	-0.0031252967
150	0xbc98ea3d	-0.018666381
151	0xbc8923f6	-0.01674078
152	0x3d26a505	0.04068472
153	0xbd7e7f61	-0.062133197
154	0x3ccde742	0.025134686
155	0xbd05e404	-0.032688156
156	0x3d10a964	0.035317793
157	0x3d011735	0.031516273
158	0xbc810f16	-0.015754264
159	0xbca6f2d7	-0.020379467
160	0x3c4f4a6f	0.012652024
161	0xbd414c77	-0.047192063
162	0xbc2c6a1a	-0.010523343
163	0x3bc6e527	0.0060697976
164	0xbb617185	-0.0034399938
165	0x3dfb579c	0.122725695
166	0x3dbf5374	0.09342089
167	0xbc78acdd	-0.015177933
168	0x3b9aae28	0.004720468
169	0x3af2533a	0.0018487938
170	0x3d0ace42	0.03388811
171	0x3ce83541	0.028345706
172	0xbd67d207	-0.056596782
173	0x3dd5e05b	0.10443183
174	0xbc301c13	-0.010748881
175	0xbaaf63f8	-0.0013381233
176	0xbd3dd39b	-0.04634438
177	0xbc0d5e6e	-0.008628471
178	0xb9207864	-0.00015303638
179	0xbd3a218f	-0.04544216
180	0x3cfde04e	0.030990746
181	0x3d2332f9	0.039843533
182	0xbc41fabb	-0.011839564
183	0x3dfb24a9	0.12262852
184	0xbd0fcdc9	-0.03510836
185	0xbc26f317	-0.010189793
186	0xbd63668f	-0.05551773
187	0x3d9e8e21	0.07741953
188	0x3d222142	0.0395825
189	0xbcb73f41	-0.022369029
190	0x3d5d9edc	0.05410658
191	0x3db4ea1a	0.08833714
192	0xbdd016d5	-0.10160605
193	0xbd06c0cc	-0.03289871
194	0x3d858e6b	0.06521305
195	0x3d5a32f1	0.053271238
196	0x3dfe4dcc	0.12417182
197	0x3d5d8849	0.05408505
198	0x3d5f5658	0.054525703
199	0x3d122bb5	0.035686214
200	0xbb2bd903	-0.0026221878
201	0xbd236e1c	-0.03989993
202	0x3d73c62e	0.05951517
203	0x3cf37980	0.029721022
204	0xbd42c5e6	-0.047552012
205	0xbd27d00c	-0.040969893
206	0x3ce77522	0.028254095
207	0x3ba15f5e	0.0049246987
208	0x3e08db49	0.133649
209	0xbe25c002	-0.16186526
210	0xbc6308ac	-0.013857048
211	0x3c079615	0.008275528
212	0x3dea07a1	0.11427236
213	0x3cfd51cb	0.030922791
214	0xbcef5c84	-0.02921892
215	0x3e133261	0.14374687
216	0xbbac6995	-0.00526161
217	0x3ccf3e85	0.025298366
218	0x3d6d85b4	0.057988837
219	0x3e24ce39	0.16094293
220	0x3d0c19db	0.034204345
221	0xbd6a627b	-0.057222825
222	0x3d0abe11	0.033872668
223	0x3d072dbc	0.0330026
224	0x3dd46f65	0.10372809
225	0xbd590653	-0.052984547
226	0x3d89447b	0.06702515
227	0x3bee9f21	0.0072821532
228	0xbdd8fd32	-0.10595168
229	0xbd0e5e34	-0.034757808
230	0x3d97586e	0.073899135
231	0xbd9aa68e	-0.07551299
232	0xbdddcc4f	-0.108299844
233	0x3db7e869	0.089798756
234	0xbc48ab66	-0.012247896
235	0x3c604035	0.013687183
236	0xbcbce10d	-0.023056531
237	0xbc0ae9b4	-0.008478571
238	0x3dbdb4ef	0.09263026
239	0xbd5e7521	-0.05431092
240	0x3e0c0be0	0.13676405
241	0x3ccb1a4e	0.024792816
242	0x3d8fd178	0.07022375
243	0x3c5ea369	0.013588765
244	0x3d824741	0.06361247
245	0xbc2c3e0e	-0.010512842
246	0xbd72e123	-0.05929674
247	0xbd469d08	-0.0484896
248	0xbc1cf659	-0.009580218
249	0xbd869829	-0.06571991
250	0x3df9f156	0.12204234
251	0xbbea12ca	-0.007143353
252	0xbce0b36b	-0.027429303
253	0x3d8a4540	0.0675149
254	0x3d5eca3a	0.054392077
255	0x3d4b9c49	0.049709592
